Qlocal.pth (torch, 37682 bytes, 30 tensors)

layer1.0.weight f4 [16, 42]
000000 f8 3a cc 3d 3b 77 81 be 0c 70 a7 bf 69 f9 d8 3e
       0.09972185 -0.25286278 -1.3081069 0.42377785
000010 de 83 68 3f de 91 84 3f 60 b6 3c 3d 04 99 f8 3d
       0.90826213 1.0357015 0.046072364 0.121385604
000020 45 e7 77 bf 87 21 0c c0 b2 14 36 3f 07 f6 8e 3f
       -0.96837264 -2.1895463 0.7112533 1.1168832
000030 eb 07 c9 bf 37 35 0a 42 b2 99 a6 3c 7a 4c 40 bd
       -1.5705541 34.551968 0.02033696 -0.046947934
000040 84 dc fe 3f 6e dc 3c 40 9c 1c 31 40 49 51 fd 3f
       1.9911046 2.950954 2.7673712 1.9790431
000050 8c 9c 8a 3f a3 98 22 40 c8 4c 94 40 ad 2b 62 40
       1.0829024 2.5405662 4.6343727 3.5339158
000060 ac af 0a 40 8b 17 d0 3f 08 88 32 40 9d 48 eb 3f
       2.1669722 1.6257185 2.7895527 1.8381535
000070 fe 8e fc 3f 3c 4d 47 41 e2 49 b2 3f b1 e1 63 40
       1.9731138 12.456356 1.3928797 3.56065
000080 f6 18 21 40 85 fd d5 3f fd a8 b2 3f b5 ec df 3f
       2.5171485 1.6717993 1.3957821 1.7494112
000090 8e 27 4b c0 37 65 b3 bf db 34 3d bf ab e4 36 3d
       -3.1742892 -1.4015263 -0.73908776 0.04465167
0000a0 bb 1b 17 40 e9 63 98 3f 94 53 80 be b5 fe 38 3e
       2.3610675 1.190549 -0.25063765 0.18065913
0000b0 08 0b 9b be eb 59 20 3f ee 6c a6 be 9b c7 56 bf
       -0.30281854 0.62637204 -0.32504982 -0.83898324
0000c0 89 37 6f 3e d1 a4 a0 be 4e 1b 0b be 5e db 90 3f
       0.23361029 -0.31375745 -0.13584635 1.1316946
0000d0 a4 71 56 bf 4e f5 02 c0 7f de c4 be a2 59 a2 c1
       -0.8376715 -2.0462222 -0.38451 -20.293766
0000e0 c1 49 79 be 97 56 c7 bd 5a 9c 1a c0 7e ae 8d bf
       -0.24344541 -0.097333126 -2.415793 -1.1068876
0000f0 4e 76 2c 40 be bc f5 be 8b 65 49 3f ec b9 fd 3d
       2.6947207 -0.4799556 0.7867057 0.123889774
000100 78 f5 e5 40 7e 91 91 c0 86 9f cd 3f 6b 86 e1 3e
       7.1862144 -4.5490103 1.6064308 0.44047865
000110 6c 72 af bf 54 39 6b 40 17 d1 dd bf 6b f7 a5 bf
       -1.3706794 3.675374 -1.7329434 -1.2966131
000120 13 00 9f 3f 27 74 a2 c0 a8 f4 67 c0 a4 7f 33 c0
       1.2421898 -5.0766788 -3.6243076 -2.8046656
000130 d6 c0 ec c0 b0 4a b3 c0 3c 23 56 c0 0e a0 9c bf
       -7.3985395 -5.602867 -3.3459005 -1.2236345
000140 2a b3 e1 3f 73 a4 ac bf 15 71 02 c1 0b 5c e2 3f
       1.7632802 -1.3487686 -8.152608 1.7684339
000150 29 6b 0c bf 90 a9 83 3d f2 7c b4 be e7 fd 82 bf
       -0.54851013 0.06428826 -0.35251576 -1.0233735
000160 ea 25 ee be 2e 60 4a 3f ce 32 15 bf 18 81 d4 be
       -0.465133 0.7905301 -0.58280647 -0.4150474
000170 3c a6 e1 3d 03 91 90 3f 57 a2 a0 bf 05 10 7b bf
       0.11018035 1.1294254 -1.2549542 -0.9807132
000180 27 84 d8 3f 0c 24 bc c0 4f 13 0c be 54 d8 b3 bc
       1.691533 -5.8794003 -0.1367924 -0.02195374
000190 9c 9b 1b 40 3d 3d 97 3f 3c 1c c5 be b3 1b 92 40
       2.4313726 1.1815563 -0.38498104 4.5658813
0001a0 69 d4 5a c0 c9 20 94 c0 80 f7 91 c0 d9 2c 4b c0
       -3.4192145 -4.629002 -4.5614624 -3.1746123
0001b0 22 45 ac bf 54 41 cb 40 3e ec a5 40 1a f1 dc be
       -1.3458598 6.3517246 5.185088 -0.43152696
0001c0 10 b7 c4 40 ee 38 64 3e fd 13 a7 40 18 47 5a c0
       6.1473465 0.22287342 5.22119 -3.4105892
0001d0 57 72 41 c0 f1 8e df 40 f4 90 44 41 c6 b5 05 be
       -3.0226038 6.986199 12.285389 -0.13057622
0001e0 e3 b8 36 41 5f 27 26 41 27 98 ce 40 b5 3b c0 40
       11.420138 10.384612 6.4560733 6.0072885
0001f0 e4 c4 fb 40 7c 0f 3e c0 5f 54 68 be 93 af 25 bc
       7.8677845 -2.969695 -0.22688435 -0.010112661
000200 e9 f9 b9 bf 43 b3 60 3f 9f 30 bc bf 57 c5 49 bf
       -1.4529392 0.8777353 -1.4702338 -0.7881674
000210 42 c6 e6 3c 83 86 08 be 84 0f ed bf 3b 4a d7 3e
       0.028170709 -0.13332562 -1.852036 0.4204882
000220 2b 40 3f bf 19 43 55 bf c8 c7 04 41 41 d3 c0 41
       -0.7470729 -0.8330551 8.298775 24.103151
000230 48 5c eb 3e 44 cf bb 3d 9f 96 e8 bf 6b ee 35 40
       0.45968843 0.09170392 -1.8170966 2.8426769
000240 8f 4a 8e 40 0b 35 8c bf cb 9e 73 c0 ed b8 15 3f
       4.4466014 -1.0953687 -3.806567 0.584853
000250 56 cb ea 40 91 29 93 c0 9c b8 01 c0 34 0e 76 3e
       7.3373213 -4.598824 -2.0268927 0.24028856
000260 2d a9 85 40 89 d7 8d 40 7c df 33 c1 85 65 4c c1
       4.1769013 4.4325604 -11.242062 -12.774785
000270 13 ad 5f c0 43 34 20 c1 5a 0e 30 bf be 0d ae bf
       -3.4949386 -10.012759 -0.687719 -1.3597944
000280 77 29 03 41 b0 5d 16 41 e1 ce c5 be 66 7f 1f 40
       8.197623 9.397873 -0.386344 2.4921508
000290 66 20 9e 40 89 e4 d6 c0 a9 06 5c 40 e1 41 49 40
       4.941455 -6.7153974 3.4379065 3.144646
0002a0 c2 41 81 3e 87 39 e8 3d 84 20 30 3d 03 74 15 40
       0.25245482 0.113390975 0.04299976 2.3352058
0002b0 42 0e 07 be 10 08 a4 40 38 42 2a 3f d0 d7 7f 3e
       -0.13189033 5.125984 0.6650729 0.2498467
0002c0 40 77 e6 3e f5 34 36 3e 9a 0b cc bd 7e 23 e0 bf
       0.45012856 0.17793639 -0.0996315 -1.7510831
0002d0 92 d6 e0 bc dd 67 6c be a4 00 30 3e ef ba 1c 3c
       -0.027446065 -0.23086496 0.17187744 0.009566053
0002e0 a0 4b 87 3f da 6d ca 40 87 e0 e0 c0 22 a1 46 40
       1.0569954 6.3259096 -7.027408 3.1035848
0002f0 d3 5f 5e 3f f0 ae 11 40 5c bc db c0 20 1e 30 41
       0.86864966 2.2763023 -6.866743 11.007355
000300 77 f0 9e c0 48 6a a4 40 13 12 71 bd f6 82 22 bf
       -4.9668536 5.137974 -0.058855128 -0.6348108
000310 87 96 4e bf 24 73 d6 40 fc a7 4c 40 74 2f 38 c0
       -0.80698436 6.7015553 3.197753 -2.8778963
000320 6a 0e 50 bf d6 bf e8 bf c7 d5 04 41 e4 09 2f c0
       -0.81271994 -1.8183544 8.302192 -2.7349787
000330 e6 f0 72 40 e0 d7 0d 41 d7 90 1a 40 35 b2 5c 40
       3.7959533 8.865204 2.4150903 3.448377
000340 a8 f7 37 40 3b 9e 03 c0 5a cf 0a 3f 80 41 02 3e
       2.8744907 -2.0565326 0.54222643 0.12720299
000350 66 a6 27 40 95 81 37 c0 6a 3d 2c bf 84 e0 79 be
       2.6195312 -2.867284 -0.6728121 -0.24402052
000360 b7 c8 a9 3f 32 63 48 3e 58 cf 2e 40 ca 28 52 3e
       1.3264378 0.1956909 2.7314053 0.20523372
000370 a0 8f 6e be 39 72 6d 3f 74 8f 1f bf 73 86 14 bf
       -0.23296976 0.92752415 -0.6232827 -0.58017653
000380 63 ca e7 3e c1 1d 30 be 58 83 fc 3f 7a 1e bc 3f
       0.45271596 -0.1719885 1.9727583 1.4696801
000390 bb 32 14 40 1a 80 d7 40 13 74 b7 c0 70 f5 8b be
       2.3155963 6.7343874 -5.732919 -0.2733569
0003a0 71 c4 49 3f 4f 00 f7 be d9 1e 01 c0 c3 15 b8 40
       0.7881537 -0.48242423 -2.0175078 5.7526565
0003b0 3d 0f 34 c0 74 1e ca 40 22 ab 81 3f e3 c8 ee 3f
       -2.81343 6.3162174 1.013035 1.8655056
0003c0 fe 0c ae 3e b6 82 c3 3f 35 1d 75 40 1d 90 04 40
       0.33994287 1.5274265 3.8299077 2.071296
0003d0 ff c7 b8 40 12 56 f8 bf 07 30 f8 40 af af 29 3f
       5.7744136 -1.9401267 7.7558627 0.66283697
0003e0 7c cb 0c 40 f4 43 2b c0 e1 ec c4 40 cf e2 b0 c0
       2.1999197 -2.6760225 6.153916 -5.5276866
0003f0 36 00 94 be 3a 04 e1 bd a6 f4 09 3e db 87 74 3e
       -0.2890641 -0.10987134 0.13472232 0.2387995

layer1.0.bias f4 [16]
000000 76 f5 87 40 0f cf 6a 41 5c 53 9d bf a6 a1 ba c0
       4.2487135 14.675551 -1.2291064 -5.8322325
000010 be 3e d6 40 0b 64 1f 41 01 e5 d9 3f 4f 45 2f 40
       6.695159 9.961925 1.7023011 2.7386053
000020 dc 8a 62 3f 92 cc 4a c1 b1 75 8f c0 03 dc a3 40
       0.8849313 -12.674944 -4.4831166 5.120607
000030 c4 7d 38 40 7c c9 89 3e f2 75 24 bf f8 aa 47 c0
       2.8826761 0.26911533 -0.6424247 -3.11981

layer2.0.weight f4 [16, 16]
000000 17 9a 8c 3d 84 26 29 3f ed 8c b8 bf 17 9f 23 bf
       0.06865328 0.66074395 -1.4418007 -0.63914627
000010 7c 8d 29 3e c1 9e e9 3e 90 95 3c bd a6 04 17 bf
       0.16557878 0.45628932 -0.04604107 -0.5899147
000020 12 e8 2c bf 38 5b 2f 3e d7 c5 b7 be 38 2d 9c 3e
       -0.6754161 0.17124641 -0.35893127 0.3050325
000030 4f 91 c1 3e ff 50 a7 3d 75 92 33 bf 31 64 de 3e
       0.37806174 0.08169746 -0.7014535 0.43435815
000040 7d c3 09 c0 77 52 26 3f e2 18 82 3f 3d b7 8f be
       -2.1525567 0.6496958 1.0163844 -0.28069487
000050 5c 4a f9 3c 0f f5 54 be 98 e2 b8 3f e5 d4 ea be
       0.030430965 -0.20796607 1.4444151 -0.4586555
000060 d1 cc 9e bf 38 7c 7f 3e 12 34 87 3f 2c ac 79 bf
       -1.2406255 0.2494973 1.0562766 -0.9752834
000070 c8 94 cd bf c5 83 30 3f e9 5b 84 be 4d f3 12 3f
       -1.606103 0.68951064 -0.25851372 0.574025
000080 42 82 14 be b7 6f d1 bf a7 b4 83 bf 22 a2 60 bf
       -0.14502814 -1.6362218 -1.0289506 -0.87747395
000090 d5 49 3e bf 77 6a 0b 3f c7 c1 9f be af 66 4f 3d
       -0.7433141 0.5445933 -0.31202528 0.050635036
0000a0 6a f7 f9 be 06 c0 58 3f 91 b7 9a bf 49 c7 15 3f
       -0.48821574 0.84668005 -1.208727 0.5850721
0000b0 87 d1 d8 bc 80 d2 bd 3f 37 d6 12 3e 12 4a 47 3e
       -0.026467098 1.4829865 0.14339529 0.1946185
0000c0 49 02 07 be 10 fe 8d bf 79 2c de 3e 54 52 04 bf
       -0.13184465 -1.1093159 0.43393305 -0.5168812
0000d0 e2 97 f2 be 87 c6 52 bf 0b 8a 32 3f fe 35 5d bf
       -0.47381502 -0.8233418 0.69741887 -0.8641051
0000e0 1c e4 b9 bc 07 80 36 3f c5 cc 07 bf c0 b8 02 bf
       -0.022691779 0.71289104 -0.5304683 -0.51063156
0000f0 f1 68 ee be ee e4 10 40 ed 02 0f be d3 fd e2 be
       -0.4656444 2.2639728 -0.1396596 -0.44334278
000100 59 8a 90 3f 89 f1 4f 3f 11 df 4e 3e 35 b6 a3 3f
       1.129222 0.8122793 0.2020228 1.278998
000110 05 bd 33 3f 6b fb c2 bc 0c 4e d7 3f 54 d9 f5 bd
       0.70210296 -0.023801526 1.6820693 -0.12004343
000120 ff a9 aa 3e 29 70 29 bf 63 ec 0b bd 52 2b 1b bf
       0.33332822 -0.6618677 -0.034160983 -0.60612977
000130 62 97 61 bf fe 1e e5 3f 4b a3 14 3f 61 05 cc 3e
       -0.88121617 1.7900083 0.58061665 0.39847854
000140 d1 69 81 be 6a bb 13 3f 88 1b 0e c0 95 1b a8 3d
       -0.25276044 0.57707846 -2.2204304 0.08208386
000150 d2 5a 0a 3e 6f 07 a0 3e 43 a9 9b 3e 32 97 b8 bd
       0.13511208 0.3125567 0.30402574 -0.09013213
000160 47 e7 03 3d f3 00 6e 3f 9d 32 f7 3f 34 a0 60 be
       0.032202985 0.929702 1.9312321 -0.21936113
000170 70 dc 1e bf 5d 72 b1 3f d4 ae 57 3f 34 68 e4 bf
       -0.6205511 1.3863026 0.8425114 -1.78443
000180 2c 25 95 bf f5 0b dc 3e 34 e6 72 bd 54 16 cd be
       -1.1651969 0.42977872 -0.05930157 -0.40056098
000190 5c ad 99 3d 7b eb 75 bd bf 2d b1 3f 95 d6 78 bf
       0.07503769 -0.060039025 1.3842086 -0.97202426
0001a0 85 01 97 bf 79 55 f3 3d b1 65 a6 3e 47 4d 36 bf
       -1.1797339 0.11881537 0.3249946 -0.71211666
0001b0 60 23 e5 bf 88 61 0f 3e d1 7d dc be 87 32 9a be
       -1.790142 0.14002049 -0.4306474 -0.30116674
0001c0 a2 db 66 be 58 b2 1b 3f a7 7b 5f c0 b6 b7 1e 3e
       -0.22544721 0.60819006 -3.4919221 0.15499768
0001d0 34 a6 e0 bf de a9 62 bf d2 dd f7 3f d2 a1 23 be
       -1.7550721 -0.88540447 1.9364569 -0.15979698
0001e0 7d 02 a6 be b1 c1 30 3f 7c 2a a7 3d f1 9a 48 3e
       -0.32423773 0.6904555 0.081624 0.19590355
0001f0 ba 84 5f 3f d9 c9 45 40 92 d9 5d 3f 06 6b d4 be
       0.873119 3.0904448 0.8666011 -0.41487902
000200 70 58 82 bf 55 06 e9 be 57 91 8e 3e cd 44 db be
       -1.0183239 -0.45512643 0.2784526 -0.42825928
000210 45 13 07 3e e8 61 a1 3c 46 04 2a 3f d3 87 98 bf
       0.13190944 0.019700006 0.6641277 -1.191645
000220 74 f0 48 bf ce fb 5c bf cc 20 81 3f e5 59 34 bf
       -0.784919 -0.86321723 1.0088134 -0.7044967
000230 93 7b a7 bf e9 e4 c9 3e 8f 89 b6 3e c0 24 ea bd
       -1.3084587 0.39432457 0.35651824 -0.11432791
000240 76 f6 8c 3d 9b b7 5e bf 26 cb d9 bf c4 e7 a6 bf
       0.06882946 -0.8699891 -1.7015121 -1.3039479
000250 cd 67 3a be a4 96 93 bd 71 d6 b9 3f 64 b0 5e 3e
       -0.1820366 -0.07206467 1.4518567 0.21746975
000260 49 d7 b6 be cb 9a 8f be 34 1d 85 bf 6a 4a 47 3f
       -0.35711125 -0.28047785 -1.0399537 0.7784792
000270 3a d6 83 bc 70 71 45 3f c3 04 22 be 39 27 bf 3d
       -0.016093362 0.77126217 -0.15822129 0.09333653
000280 16 e5 89 be 0b 68 4d 3f 8b 4e 9e 3e 34 26 a2 bd
       -0.2693259 0.8023688 0.309193 -0.07917443
000290 2b 3c 49 3e c2 d9 07 3e 25 cf 38 3e fd 73 fd 3e
       0.19651859 0.13266662 0.1804777 0.49502555
0002a0 00 21 94 be ed 0c f3 bc fc ef 08 40 c4 01 0b be
       -0.28931427 -0.02966925 2.1396475 -0.13574892
0002b0 de 7f 1e 3f e9 cc b9 be a2 28 b3 3e d1 c7 6c bf
       0.6191386 -0.36289147 0.34991938 -0.92492396
0002c0 91 3a 81 3f 0f 74 05 bf 34 0b 13 3f a3 71 63 bb
       1.0095998 -0.52130216 0.5743897 -0.0034705184
0002d0 fc 45 f1 be 55 27 22 bf a0 11 b3 bc 72 37 93 be
       -0.47123706 -0.63341266 -0.02185899 -0.2875324
0002e0 fb 90 35 3f 41 6e 76 3f 5a 81 31 bf 49 47 51 3f
       0.7092435 0.96261984 -0.69338 0.817494
0002f0 2e 19 58 bf 9d 85 3b 3f b7 bd f7 3d 65 ec f6 3c
       -0.8441342 0.7325075 0.12096732 0.030142019
000300 6e dd 4e 3e 89 66 30 3f 5d be 74 3f 9f de 9d 3f
       0.20201656 0.68906456 0.9560297 1.2333564
000310 6a be 87 bf b3 f2 06 3b 38 3d f5 3e 4a 6e a9 3e
       -1.0604985 0.0020591437 0.4789827 0.33091956
000320 6f 9b 37 bf c0 1c 90 3f ca c3 6b 3e 0b 6d 29 bf
       -0.7172155 1.1258774 0.23023906 -0.6618201
000330 9c 62 96 be d4 1e 0c 3f 0f ca 07 3f bc 45 7e bf
       -0.29372108 0.5473454 0.5304269 -0.99325156
000340 11 ef 8a 3e 27 19 a7 3e 52 ed 6b 3f 68 36 45 be
       0.27135518 0.32636377 0.92159 -0.19259036
000350 4b 49 23 bf 00 e8 4e bf 91 75 06 bf 99 ab cc 3d
       -0.6378371 -0.80822754 -0.5252314 0.09993667
000360 2f 32 a0 3e b3 3d 3c bf 2f 21 31 be 46 23 15 be
       0.31288287 -0.73531646 -0.17297815 -0.14564237
000370 a7 b2 df bd d7 59 a0 bd d9 b4 7d bf ff 15 01 be
       -0.10922747 -0.078296356 -0.99104077 -0.12606047
000380 65 0a d0 be 84 c6 48 3e b3 60 1f 3e 01 1e 5b be
       -0.4063293 0.19606978 0.15564232 -0.21398164
000390 da 0e 03 be 36 37 07 bf d0 04 12 40 ba 2a 87 bd
       -0.12798634 -0.5281862 2.2815437 -0.06599946
0003a0 13 1d 4b bf 98 6b 05 bf c8 68 00 3f 48 de ea 3d
       -0.7934124 -0.521173 0.50159883 0.11468178
0003b0 31 d5 ef be e4 46 00 40 03 ce fc be c0 4c e6 3d
       -0.4684234 2.0043268 -0.49375924 0.11245108
0003c0 10 53 85 be 68 0c 7e 3f b6 03 ba be 8c 30 a3 bc
       -0.26039934 0.9923768 -0.36330956 -0.01992061
0003d0 ab 38 11 be 8c 17 69 3d 2f 68 48 3f 36 33 dd be
       -0.14181773 0.05690722 0.7828397 -0.43203133
0003e0 f1 f1 86 be 4e a1 17 3e fd 16 85 3f 1c f1 cc be
       -0.26356462 0.14807627 1.039764 -0.40027702
0003f0 dc 88 43 bf 8b 32 9f bf 03 30 92 be 30 4e 79 be
       -0.76380706 -1.24373 -0.28552255 -0.24346232

layer2.0.bias f4 [16]
000000 7e fd 80 40 d4 da fb 3e 14 17 d8 3e a8 a6 94 bf
       4.030944 0.4919039 0.42205107 -1.161336
000010 93 42 91 40 7a 02 fb c0 f0 a6 90 40 5b 66 00 c0
       4.5393767 -7.8440523 4.520378 -2.0062473
000020 33 a2 1e 3f 4c d2 9c 40 71 49 d6 bf 62 f6 c2 c0
       0.61966246 4.900671 -1.6741163 -6.092576
000030 92 8e 8e c0 73 0d e1 bf 13 a4 90 40 2c 8a 36 c1
       -4.4549036 -1.7582229 4.5200286 -11.408733

layer3.0.weight f4 [16, 16]
000000 13 f4 c2 be 6b 6c c6 3f 0c 4a d9 3e 83 5d ff 3e
       -0.3807684 1.5501837 0.42439306 0.4987603
000010 7d 3e 8c bf 26 9b f7 3e c3 a4 37 3f 30 0e d7 3f
       -1.095657 0.48360556 0.7173578 1.6801205
000020 6d db 2d 3f e5 95 f3 bf 64 ec 47 be d4 bd 2f 3e
       0.6791294 -1.9030119 -0.1952377 0.17162257
000030 6a e5 2c 3f 80 f1 cd be e4 af 59 3e 79 1e c1 3c
       0.6753756 -0.40223312 0.21258503 0.0235741
000040 65 80 47 3e c6 03 82 3f 25 72 00 bf 78 bc 1a bf
       0.19482572 1.0157402 -0.5017417 -0.6044383
000050 b9 c9 9e be cd 0b 0b be a5 7c 1c be 55 41 b8 3f
       -0.31013277 -0.1357872 -0.15281923 1.4394938
000060 47 63 6a 3c bf 7a 50 3f 51 98 34 3e 30 83 2b bf
       0.014305896 0.81437296 0.17636229 -0.6699705
000070 30 d4 73 be 98 b8 f0 bf a3 52 27 3f fb 89 8b 3d
       -0.23811412 -1.8806334 0.6536047 0.06813427
000080 fa 54 68 bf 85 f4 87 3e 5e d6 b7 be 1c 51 94 3f
       -0.90754664 0.2655374 -0.35905737 1.1587253
000090 f2 97 9b bf ff 49 db 3e 27 44 41 bf 69 a8 0e 40
       -1.2155745 0.42829892 -0.7549462 2.229029
0000a0 df 09 11 c0 9f d9 85 bf 10 eb 06 3f a0 e5 a1 be
       -2.2662275 -1.0457038 0.52702427 -0.31620502
0000b0 52 58 d1 3f 16 6a b8 3f 69 96 49 3e ab bc 23 be
       1.6355078 1.4407375 0.19686283 -0.1598994
0000c0 6d b3 66 bf 4c 9b 66 bf 71 65 ad be 8c 86 80 be
       -0.9011753 -0.90080714 -0.33866456 -0.2510265
0000d0 85 17 0a 3f 2c 13 3f bf c4 5b 81 3e b4 bb 81 be
       0.5394214 -0.7463863 0.25265324 -0.2533852
0000e0 1d 5f b8 3e 3e d0 9f 3e ab de 13 3d 93 a8 81 3f
       0.36010066 0.31213564 0.036101025 1.012957
0000f0 c8 1c be bf b7 06 e6 bc 56 45 a8 3f 43 1b 8f 3f
       -1.4852533 -0.028079374 1.314616 1.1180195
000100 8f 35 2b bf 79 3b c7 3f 73 34 63 bc af 14 3d 3f
       -0.668786 1.5565025 -0.013867485 0.73859686
000110 37 99 37 bf 34 1f 25 3f ff 23 84 3f 4a 21 bf 3e
       -0.7171816 0.6450074 1.0323485 0.37330085
000120 77 ff 83 be cf 2f 2a bf c8 e6 b2 be a9 db f7 3e
       -0.25780842 -0.664792 -0.34941697 0.48409775
000130 37 49 cc 3e 8e 6c 88 bf 1a 14 4e 3f d5 4c 4a be
       0.39899608 -1.0658128 0.8049942 -0.19755872
000140 c2 26 18 bf c1 01 4f 3f 31 ba 55 3e 6e de 74 bf
       -0.5943414 0.8086205 0.20871808 -0.956519
000150 8d f0 03 be 48 1c 9e bf f7 47 18 3e 1d ee 1d c0
       -0.12884732 -1.2352381 0.14871202 -2.4676583
000160 7f db b4 3e 27 4b 2f c0 d7 d9 b6 be b3 bb c1 3e
       0.35323712 -2.738962 -0.35713074 0.37838516
000170 2f f1 68 3f fc 7f 0f bf 33 f3 da bf b1 f4 ad 3c
       0.90993017 -0.56054664 -1.7105469 0.021234842
000180 99 93 c9 3e 39 54 45 3f d7 a5 9a be cc ef 98 3e
       0.3937042 0.7708164 -0.3020465 0.2987045
000190 a3 0c 11 3e 6e b9 d2 be bf 7e e0 3d 14 66 14 bf
       0.14164977 -0.41157097 0.10961675 -0.5796826
0001a0 8a 15 f3 3e a7 4a b9 be cc 63 31 c0 22 a0 39 3f
       0.4747737 -0.36189768 -2.771716 0.7250997
0001b0 81 6d ee bf 30 3d b3 bf e6 c5 8c bf ac 90 6e bf
       -1.8627168 -1.4003048 -1.0997894 -0.931895
0001c0 3c ed 1b 3f 9b f0 f3 3e c2 1a 58 bf 1d cd 0c 3e
       0.60908866 0.47644505 -0.8441583 0.1375012
0001d0 4d a1 43 3f 17 4f 3c bf cb f1 4b bf ee 6b 56 bf
       0.76418 -0.7355818 -0.7966582 -0.8375844
0001e0 14 ee 3c bf 56 22 2d 3e e3 60 2a 3f c7 ad 78 3f
       -0.7380078 0.1690763 0.6655409 0.97140163
0001f0 11 81 18 3f 99 4b 11 be e1 82 64 3f d4 a4 5d bf
       0.5957194 -0.14188994 0.89262205 -0.8657963
000200 d7 17 74 3f d4 0f c7 3e f8 aa 66 bf 86 92 9a bf
       0.95348877 0.38879263 -0.9010463 -1.2075965
000210 da a8 20 bf bb 97 e8 be 5e 7a d1 3f d0 e6 11 bf
       -0.6275765 -0.4542826 1.6365469 -0.56992817
000220 c8 7f 00 3f bc 5f 3f 3e aa 8c 4c 3f 55 67 74 bf
       0.5019498 0.18688864 0.79902136 -0.9547017
000230 0e 29 36 3f fc e2 7e be f0 36 9c 3e 7f 5b d3 3f
       0.71156394 -0.24891275 0.30510664 1.6512297
000240 89 09 b3 bf 9b 04 51 3f 4d 25 1a 3c b5 bc 87 3f
       -1.3987285 0.8164765 0.009408307 1.0604464
000250 41 86 d4 bf 64 0d 5f 3f 6f fd 28 3e 07 00 85 3f
       -1.6603471 0.8712981 0.16502927 1.0390633
000260 d6 97 54 be a1 1b 13 bf 42 87 70 bf 56 68 66 3f
       -0.20761046 -0.57464033 -0.9395639 0.90002954
000270 74 02 75 bf d1 91 31 3e 5f 38 a7 be d4 df 82 3e
       -0.9570687 0.17340781 -0.32660195 0.25561392
000280 34 8e bc be d6 f1 8a be 33 97 55 bf 33 f1 72 3e
       -0.36827242 -0.2713763 -0.83433837 0.23724823
000290 82 5e 65 3f d8 ae 6e 3f 10 00 ba 3e 38 dc 52 3f
       0.8959733 0.9323554 0.36328173 0.8236728
0002a0 88 91 24 be 6e 16 ee be 2b ae 24 bf f5 70 b5 bf
       -0.16071141 -0.46501487 -0.6432826 -1.4175097
0002b0 82 29 98 be 5f 0a 4a 3f 66 2a 40 bf ce da cf bf
       -0.29719168 0.78922075 -0.75064695 -1.6238649
0002c0 e1 d2 c7 3f de 0f 5e bf 16 d5 51 bf 30 fc 7e 3e
       1.561123 -0.8674296 -0.8196577 0.2490089
0002d0 28 93 63 3f ae 17 28 be 6b 43 45 bd d3 b4 aa 3f
       0.8889642 -0.16415283 -0.048159998 1.3336433
0002e0 1c ee 51 3f 1c 27 bf bc 5e af 9c 3e bc 0b 1e 3f
       0.8200395 -0.023334078 0.30602545 0.61736655
0002f0 66 af 18 40 b4 a9 8a bf 6d bd 10 c0 84 80 1a bf
       2.3857055 -1.0833039 -2.2615616 -0.6035235
000300 a6 9b 53 3e ea dc 05 3f 01 1a 62 3e bc a6 d0 bf
       0.20664844 0.52290213 0.22080232 -1.6300883
000310 5f 95 16 3f 28 07 49 be 30 c5 4a 3d 64 4f a9 3f
       0.5882167 -0.19631636 0.04950446 1.3227353
000320 e5 26 53 bf 20 eb ca 3c a0 85 a0 3e d0 13 5a bf
       -0.82481223 0.02477032 0.31351948 -0.8518648
000330 db 39 65 3f 5c d7 63 3d bb dc 1e 3f 84 53 97 3f
       0.89541405 0.055625305 0.6205556 1.1822362
000340 61 0a 1d 3f 73 92 6a bf be 93 f5 be 5b 52 fa bf
       0.6134396 -0.91629714 -0.4796428 -1.9556383
000350 01 d4 bd be cd cc 05 3f f4 c5 28 3f 38 99 20 bd
       -0.3707581 0.52265626 0.6592705 -0.03920862
000360 f8 42 c0 be 8d 05 84 be 73 e0 91 bd fd 7f 10 bf
       -0.37551093 -0.25785485 -0.071228884 -0.56445295
000370 56 a3 4b be 59 b2 b4 3e 3f 39 bd be 00 a0 42 3f
       -0.19886526 0.35292318 -0.36957738 0.7602539
000380 e5 d4 2c 3f 1f 43 9b be ac a7 c9 3e 84 bd 88 bf
       0.6751235 -0.30324647 0.39385736 -1.0682836
000390 b2 29 c0 3c 45 60 14 3e 6b ba 22 bf db 0f 5a bd
       0.023457382 0.14489849 -0.635657 -0.053237777
0003a0 9f 92 0f bf f3 7c 13 bf 3b da 6c be cf 54 c7 3f
       -0.560831 -0.5761253 -0.23130123 1.5572757
0003b0 cd 14 04 bf b2 9a 8e 3f 04 15 88 3f ab fc a0 3f
       -0.5159424 1.1140959 1.0631413 1.2577108
0003c0 6c 59 b6 bd ec 6f 8d 3f 3e 1a 0f bf 36 e4 13 3e
       -0.089037746 1.1049781 -0.5589942 0.14442524
0003d0 4b ef c0 be 83 cf 42 be 65 0e 14 3f f4 0c f7 be
       -0.37682566 -0.19024472 0.57834464 -0.4825207
0003e0 f9 af b3 3e 8b dd bb bf 4f f8 e3 be 34 d1 7c 3f
       0.35095194 -1.4676985 -0.44525382 0.9875672
0003f0 8a 73 13 3d a8 cb e2 bd b3 50 ae 3e ce a3 46 3f
       0.03599886 -0.110740006 0.34045944 0.77593696

layer3.0.bias f4 [16]
000000 89 61 4a c0 1c f2 0e 3c 14 61 ac bf f0 fe e2 bd
       -3.162203 0.008724716 -1.3467126 -0.11083782
000010 f1 10 8a 40 c5 18 5e 40 7a c4 82 40 23 77 f9 c0
       4.314568 3.4702618 4.086484 -7.795793
000020 90 f3 66 40 24 b8 3c 3e 88 ea 2c 40 d5 eb 0a c1
       3.6086159 0.18429619 2.7018147 -8.682576
000030 3f 45 e7 3f 0c 67 c8 3f e7 b2 af 3f 16 d3 ee c0
       1.8068007 1.5656447 1.3726472 -7.4632673

layer4.0.weight f4 [16, 16]
000000 1a 3f 33 3e e2 31 06 3f f0 d3 58 be 1f 4b 7a be
       0.1750454 0.52419865 -0.21174598 -0.24442719
000010 d3 f8 51 3f 8b 85 61 c0 23 35 cb 3e 25 79 35 3e
       0.820203 -3.5237758 0.39688978 0.17721994
000020 bd 0b 5e bf eb 1d 07 3f ae 84 92 3e fa 9f e4 bd
       -0.8673666 0.52780026 0.28616852 -0.111633256
000030 e0 45 6a bf 52 b0 44 3c 26 c5 13 bf 3d 66 97 be
       -0.9151287 0.012004929 -0.577227 -0.2957019
000040 10 66 cc 3d bd eb 56 bf 22 4a 4b bf a0 86 1e 3e
       0.099804044 -0.8395346 -0.7940999 0.15481043
000050 5c 1a b5 bf 18 7d 20 bf 78 7b e9 bd 5f 19 0f 3f
       -1.4148669 -0.6269088 -0.11400503 0.5589809
000060 9a c3 a8 bf 10 d7 1e 3e f9 6e 3d 3f 6e 96 8a 3f
       -1.3184693 0.15511727 0.73997456 1.0827157
000070 14 d2 80 bf 68 3a c2 bb 4a 56 e1 bf 42 8d 4a 3f
       -1.0064111 -0.0059273727 -1.7604458 0.7912179
000080 fe 45 03 3f 4b e3 01 bf c1 a0 1c bf b1 b7 a7 be
       0.51278675 -0.50737447 -0.6118279 -0.32757333
000090 12 80 dc be 0c 14 d2 3f 73 9c c9 bf e6 54 e6 3e
       -0.4306646 1.6412368 -1.575087 0.44986647
0000a0 4d 43 39 bf 71 4f ad bf b6 02 5e bf 47 99 85 3f
       -0.7236832 -1.3539869 -0.86722887 1.0437402
0000b0 c4 1d 66 bf 3a 86 8f 3f a4 bd 86 bf fa c9 b8 3f
       -0.8988917 1.1212838 -1.0526624 1.4436638
0000c0 49 74 a9 3f 1d 6e d4 3e cf 18 97 3d 71 d4 f3 3c
       1.3238612 0.4149026 0.07377779 0.029764386
0000d0 46 4d 5f 3f aa b8 29 bf b4 95 85 be 48 d9 94 bf
       0.87227285 -0.662974 -0.26090777 -1.1628809
0000e0 f8 0f d7 3e 2a 3d 16 bf 42 e4 8a bf 74 d2 91 be
       0.4200437 -0.5868708 -1.0850909 -0.28480875
0000f0 17 84 a3 3e 07 23 b4 bf 7e 3f 28 bd ad 64 f6 3f
       0.31936714 -1.407319 -0.041076176 1.9249474
000100 1d b4 b7 3e c9 32 49 be 82 9b 4c 3d 1d b2 00 bf
       0.35879603 -0.19648279 0.04995299 -0.5027178
000110 1d ab e2 3e 0a 89 31 3c 7b f7 ab be 93 ae ab be
       0.44271174 0.010835895 -0.3358725 -0.33531627
000120 f1 88 82 3c 68 1e 1d bf 67 c8 ac be 84 05 fe 3e
       0.01593444 -0.6137452 -0.33746645 0.49613583
000130 5c 1a 84 3f 01 be b2 3e 44 a6 4b bf 58 4b ab bd
       1.0320544 0.34910586 -0.79550576 -0.0836398
000140 02 55 e3 3c b4 51 6a bf 5f e9 17 c0 fc a0 5f bf
       0.027750496 -0.9153092 -2.3736188 -0.8735502
000150 bf 7c d2 be bd 89 a5 3e 9d e3 ed 3f 81 50 5b 3e
       -0.411108 0.32331648 1.8585087 0.21417429
000160 4b ca 8d 3e a1 1d c4 bf 4f 52 53 be c7 87 fc 3e
       0.276934 -1.5321542 -0.20636867 0.4932234
000170 eb 57 53 bf 97 ee 75 bf 05 14 36 bf ec 7d f6 be
       -0.8255603 -0.96067184 -0.711243 -0.48142946
000180 7a a6 62 3f 6f fe eb bf e7 c0 0a bf 19 0b ba 3e
       0.88535273 -1.8437022 -0.54200596 0.36336592
000190 2b 05 4c be 00 d4 b2 3f 66 29 1d be 91 50 f0 3e
       -0.19923846 1.3970947 -0.15347824 0.46936467
0001a0 fe 0e fa be 7b ed 18 3f 98 50 39 bf 28 08 2b bf
       -0.48839563 0.59737366 -0.723886 -0.6680932
0001b0 fb c3 89 bf cd 5b 32 bf 08 d1 d2 3c 99 12 e8 3f
       -1.0762933 -0.69671327 0.02573444 1.8130676
0001c0 e9 16 a6 be fa a9 4d 3e aa 90 dd 3f 9d 83 84 3e
       -0.32439354 0.20084372 1.7309773 0.25881663
0001d0 ad 0d 16 be 88 72 fc bf 00 53 02 c0 d3 98 29 3c
       -0.14653654 -1.9722452 -2.036316 0.010351378
0001e0 bc ba 4d 3e 6a 33 a3 3d 0a 5c 1c 3e 4f bc b2 be
       0.20090765 0.07968791 0.15269485 -0.34909293
0001f0 35 97 cc 3e 69 89 03 bf b6 a0 3e 3e 01 7c 36 3f
       0.39959112 -0.51381546 0.18615994 0.71282965
000200 04 d4 17 bf 47 ed a4 3e 90 5f d5 bd d6 2b 45 bf
       -0.59307885 0.32212278 -0.10418618 -0.77020013
000210 23 43 75 3e 92 99 e8 3d 14 65 8d bd d2 6c cb be
       0.23951392 0.11357416 -0.06904045 -0.3973146
000220 3b dc 1d 3f dc 74 0d 3f 0a 1b 04 bf f0 9b 80 bf
       0.6166417 0.5525644 -0.5160376 -1.0047588
000230 8e 44 33 bf ba 31 16 bf 32 c3 f5 3d 40 45 14 3f
       -0.7002648 -0.58669627 0.12000121 0.5791817
000240 3c 63 d1 3e ed c7 3f bf 94 9f 90 3e 01 03 60 bf
       0.40896022 -0.7491444 0.28246748 -0.87504584
000250 d9 4e d5 be 31 94 25 3f bf b4 37 3e 2d 2e 36 3f
       -0.41661718 0.6467925 0.17940043 0.7116421
000260 76 a9 3f bf 67 12 1f 3e 10 18 84 3e f9 e2 99 3f
       -0.7486795 0.15534364 0.25799608 1.2022392
000270 7b 61 d6 3e c4 24 1f 3e 21 c9 d1 be 99 0c 25 c0
       0.41871247 0.15541369 -0.40973762 -2.578894
000280 7f a1 a7 3e 5c f3 82 bf 35 f6 fb bf 4d 31 02 3f
       0.327404 -1.0230517 -1.9684511 0.5085648
000290 7c c8 50 bf f6 1a 6f bf 27 97 a0 3e 5d 6b fb 3d
       -0.81555915 -0.93400514 0.3136532 0.12276337
0002a0 b1 b7 08 3f c6 e1 7f be 4e 47 22 bf 71 4c a2 3e
       0.5340529 -0.2498847 -0.6339005 0.31698945
0002b0 45 41 33 be b0 4c 8d 3e a7 e6 17 be 4b c2 16 3f
       -0.17505367 0.2759757 -0.1483408 0.5889022
0002c0 55 88 3d bd 9d 04 a4 3f 21 00 c2 bf 17 73 5b 3f
       -0.046272594 1.2813908 -1.5156289 0.8572249
0002d0 01 3f 67 3e ba 57 59 3f df f0 9c 3f f7 f4 03 3f
       0.22582628 0.84899485 1.2261008 0.5154566
0002e0 65 6d 65 bf 69 6c df bd 68 fa e8 be 41 02 82 3d
       -0.8962005 -0.109093495 -0.45503545 0.06348086
0002f0 5e e4 0e bf 6b 8c 0c 3f cf 32 af 3e 18 90 10 3f
       -0.5581721 0.5490176 0.3421845 0.5646987
000300 97 ae b6 be 7e 4c c1 be 18 e1 aa 3f 20 34 55 bf
       -0.35680076 -0.3775367 1.3349943 -0.8328266
000310 2a 83 a3 be ec c2 86 be 31 5d df be c5 ac 87 be
       -0.31936008 -0.2632059 -0.43625787 -0.26499
000320 4c 5f da 3e d8 2a db 3e 08 d5 c4 be de e2 73 bf
       0.4265083 0.42806125 -0.3844378 -0.95268047
000330 f5 0b 17 3f ce 7e 9d bf b2 05 a9 3f df f6 64 bf
       0.5900262 -1.2304323 1.3204863 -0.89439195
000340 f0 8e c0 3e 51 b5 3b 3e f8 33 37 3f e5 7d 09 3e
       0.37609053 0.18330885 0.71563673 0.13426931
000350 df a6 4c be 7a ff 4a bf 10 62 99 3e d0 f1 ab bf
       -0.19985531 -0.79296076 0.29957628 -1.343317
000360 ee 94 8e bd 1a 91 c0 3e 7b 90 95 3d 10 db 67 bf
       -0.06962 0.37610704 0.07302948 -0.9056864
000370 42 2c 15 3f 50 40 de be 1f 71 4e 3e 62 14 04 c0
       0.5827066 -0.43408442 0.2016034 -2.063744
000380 a9 e3 0a 40 b9 e9 7a bf 83 c4 11 bf c8 55 15 bf
       2.1701453 -0.9801288 -0.5694048 -0.58334017
000390 cd a0 ff 3f 48 d8 8d 3f ed 2f dc bf 11 cd c6 3f
       1.9970948 1.1081629 -1.7202126 1.5531331
0003a0 fb 72 db bf 10 f8 84 be 24 cc 57 bf 82 e3 a1 bd
       -1.7144464 -0.25970507 -0.8429587 -0.07904722
0003b0 b7 c2 89 3f 74 8d 3f 3d 23 a9 82 bf 0e a0 75 be
       1.0762547 0.04676576 -1.0207866 -0.23986837
0003c0 a3 5d de 3e 56 ce 04 3f c5 c6 07 bd 34 52 74 3e
       0.43430814 0.51877344 -0.033148546 0.23859483
0003d0 1f 7f 4f 3f bf 21 79 3d 32 1c 90 be 48 a8 10 bf
       0.81053346 0.0608232 -0.2814651 -0.56506777
0003e0 23 ea 31 3f b6 e4 aa be 88 09 41 bf be 17 88 3f
       0.6949789 -0.33377618 -0.7540517 1.0632246
0003f0 7e 19 91 bf 60 57 8f bf f2 1c 16 3f b0 90 f9 be
       -1.1335905 -1.119854 0.5863792 -0.487432

layer4.0.bias f4 [16]
000000 75 6d c9 c0 b1 90 0b c1 ce 92 07 c1 fa b4 7d 3e
       -6.2946115 -8.722825 -8.473341 0.24776068
000010 72 45 43 40 a3 6c 42 bf 33 4a d2 3f 94 1e 79 3f
       3.0511136 -0.75947016 1.6428894 0.97312284
000020 f3 2a 16 40 5e 75 c5 c0 14 aa d7 3e 5d e5 ec 3f
       2.3463714 -6.170577 0.42121947 1.8507496
000030 7c ef 9b 40 2a 29 e5 40 04 16 5e c0 8d 90 e2 bf
       4.872984 7.161275 -3.4700937 -1.7700363

final.weight f4 [27, 16]
000000 30 6b a8 bf ec 20 0d c0 2b ce 12 3e 61 92 c7 3f
       -1.3157711 -2.2051344 0.1433646 1.5591546
000010 95 7e cc 3f 38 54 6b bf 60 99 cd 3c a2 d9 ae 3c
       1.597613 -0.9192538 0.025097549 0.02134401
000020 21 fd 77 3f 59 ef ae bf 9e fd ed 3e e9 b3 d8 3e
       0.9687062 -1.3666793 0.46482557 0.4232476
000030 72 35 b3 3f 2a 00 a2 3f fa aa de be 0b 35 7e 3f
       1.4000685 1.26563 -0.4348982 0.9929969
000040 b2 e2 b3 bf 1b 6e ee bf 1f de 3a 3e 90 01 eb 3f
       -1.4053557 -1.8627352 0.18248795 1.8359852
000050 9a 5a d8 3f 2a f3 ff bd 37 3b 54 3e 1d fc 93 be
       1.6902649 -0.12497552 0.20725714 -0.28903285
000060 06 63 6f 3f 34 e1 a4 bf 4f 53 0d 3f 4e 99 0c 3f
       0.9351047 -1.2881227 0.55205244 0.54921424
000070 16 e4 69 3f 22 da 5f 3f d0 7e 0e bf 25 56 82 3f
       0.91363657 0.8744222 -0.5566225 1.0182539
000080 a0 bc ee 3e 44 3c 30 bf cf f9 7c be 80 44 d9 3f
       0.46628284 -0.6884196 -0.2470467 1.697403
000090 71 5c d5 3f d6 07 5f bf f7 6e 7b bf ea ce 22 3f
       1.6668836 -0.8712133 -0.98216194 0.63596976
0000a0 5a 8e fa 3d be c2 98 bf a7 8a 68 3f e7 a9 73 3e
       0.12234183 -1.1934431 0.90836567 0.23795281
0000b0 a4 6a 5e 3f 71 0d 63 3f f4 8a 78 be aa f8 88 3f
       0.8688147 0.88692385 -0.24271756 1.0700886
0000c0 88 7e 8a bf 1e dc 1b c0 aa ec ae 3e 77 50 d2 3f
       -1.0819864 -2.43531 0.34164935 1.6430806
0000d0 c9 d7 d7 3f 00 2f 4c be 99 93 f8 3e 03 de 3e bf
       1.6862727 -0.19939804 0.48550108 -0.74557513
0000e0 95 47 91 3f 96 40 ae bf 4c 00 01 3f 66 60 59 3d
       1.134997 -1.361346 0.5039108 0.05307045
0000f0 7d 44 68 3f 62 0b 93 3f f4 93 c0 bd 0c d9 5a 3f
       0.90729505 1.1487849 -0.0940322 0.8548744
000100 12 24 7a bf eb 42 1b c0 8b ca 4f 3e f6 55 e2 3f
       -0.9771129 -2.4259593 0.20292108 1.7682483
000110 9e 71 ee 3f ca 2d 52 3e c9 b3 db 3e 98 d1 b2 3d
       1.8628423 0.2052528 0.42910603 0.08731383
000120 b9 cc 2b be 88 2e 9b bf de df ae 3e 8b 41 46 3e
       -0.16777314 -1.2123575 0.34155172 0.1936094
000130 64 56 50 3f 83 a6 75 3f 2a 00 a1 be de d6 67 3f
       0.8138182 0.959572 -0.31445438 0.90562236
000140 a4 ff 1e 3e 8c 2f c4 be cc 0e 8f bd 6e 6a d9 3f
       0.15527207 -0.38317525 -0.06985244 1.6985605
000150 ac 1f b7 3f 94 cd 6a bf ae 5b ad bf 7e a3 f7 3e
       1.430654 -0.9171994 -1.3543603 0.48366922
000160 6d 30 0e be 1f a1 98 bf 75 d1 63 3f c6 a7 ed bb
       -0.1388566 -1.192417 0.8899148 -0.007252666
000170 7c d8 0c 3f 15 44 9a 3f b2 d9 f0 be 37 70 82 3f
       0.5501783 1.2052027 -0.47041088 1.0190495
000180 1b 1f 67 bf e9 d8 11 c0 88 b8 7b 3f 26 70 a8 3f
       -0.9028184 -2.2788641 0.9832845 1.3159225
000190 ec 92 61 3f 8f 7e 20 c0 aa 95 2c bf 7c b0 0f 3f
       0.8811481 -2.5077245 -0.6741587 0.5612867
0001a0 f8 f9 c0 3d f3 01 93 bf d4 85 9f bd df ff 56 bf
       0.09422678 -1.148497 -0.077891976 -0.8398418
0001b0 6f 75 94 3f dd 91 86 3f e5 65 de bf 28 c4 66 3f
       1.1598338 1.0513264 -1.7374846 0.9014306
0001c0 a5 4e 53 bf fe 8d eb bf 16 79 31 3f ec e7 02 40
       -0.8254188 -1.8402708 0.6932539 2.0454054
0001d0 7a 1a d0 3f e2 ca dc bf 12 bd cc 3e ba 78 62 3e
       1.625808 -1.7249415 0.39988 0.22116366
0001e0 24 4c 85 3e 95 4d 8b bf ba a7 8b 3e 48 63 d1 be
       0.26034653 -1.0883051 0.27276403 -0.40896058
0001f0 7c 80 ee 3e 62 38 a7 3f fe dd 25 be da 61 a6 3f
       0.465824 1.3064082 -0.16197965 1.2998612
000200 66 fd c0 3e 39 c0 18 be c3 ad 72 3e 0a 54 be 3f
       0.37693328 -0.14917077 0.23699097 1.4869397
000210 83 69 d5 3f 4f 65 1e c0 87 c2 3a bf cb ba 5e 3e
       1.6672825 -2.4749334 -0.72953075 0.21750943
000220 8e 6c 59 be 26 9f b4 bf 3b ab 66 3f 81 5b d0 be
       -0.21232817 -1.4111068 0.90105027 -0.40694812
000230 4d 55 70 3f c9 42 cc 3f 65 f4 6c 3e ca 73 b2 3f
       0.9388016 1.5957881 0.23140104 1.3941586
000240 2a 1e 9e bf 72 8f 2a c0 b1 b9 75 3e 47 af b2 3f
       -1.2352955 -2.6650052 0.23996617 1.395974
000250 fc 85 b6 3f 68 33 9b 3d a4 d3 de 3d 8e 66 19 3e
       1.4259639 0.07578164 0.10880211 0.14980528
000260 71 50 b4 3f 3d 43 af bf 4e d7 29 3f 8f 02 0a 3f
       1.4087049 -1.3692394 0.66344154 0.53910154
000270 f4 69 8e 3f 03 3f 66 3f 8c c4 39 bf 66 4e 5e 3f
       1.1126084 0.899399 -0.7256553 0.86838377
000280 e2 d2 b2 bf 16 ee c3 bf 72 27 c7 bc 43 bb bd 3f
       -1.3970606 -1.5307033 -0.024310801 1.4822773
000290 26 9c bf 3f a3 9e a5 3a 2f 77 b5 be ed 5c 21 3f
       1.4969528 0.0012635778 -0.35442492 0.6303242
0002a0 13 9c 78 3f 81 79 9b bf c1 43 2e 3f 8b 57 17 3f
       0.9711315 -1.2146455 0.68072134 0.59117955
0002b0 3a 45 dd 3f e8 fa 3b 3f af 38 96 bf cf 0d 44 3f
       1.7286751 0.7342973 -1.1736048 0.7658357
0002c0 63 df c0 3a 1c 29 c3 bf f9 e2 84 be 0e 57 bb 3f
       0.0014715012 -1.524692 -0.25954416 1.4635942
0002d0 fa b3 a7 3f 71 e1 33 bf 44 97 6e bf 62 ee 5e 3f
       1.31018 -0.7026587 -0.93199563 0.87082493
0002e0 be 57 20 3f 75 44 9f bf 63 34 26 3f fb ec ed 3d
       0.62633884 -1.2442766 0.64923686 0.11617466
0002f0 7e a3 7d 3e 9b c5 a5 3e 73 aa bb bf f7 b5 35 3f
       0.24769399 0.32377324 -1.4661392 0.7098078
000300 42 4c af bf 4c 94 5e c0 ae c7 9b 3e 3e d9 bb 3f
       -1.3695147 -3.4778013 0.3042578 1.4675672
000310 03 06 ce 3f 70 4a 1a be 68 1b 05 3f 2c 34 ac be
       1.6095585 -0.15067458 0.51994944 -0.33633554
000320 da ef 9f 3f 96 39 4b bf a2 2c 1e 3f 99 87 86 be
       1.2495072 -0.79384744 0.61786854 -0.26275328
000330 9e af 0a 40 70 d6 db 3f dc 22 f6 bd c2 97 19 3f
       2.1669688 1.7174816 -0.12018368 0.5999719
000340 4f 12 90 3e 05 68 1d c0 98 8f 89 be 96 f3 40 40
       0.28138968 -2.4594738 -0.26867366 3.0148673
000350 c0 79 27 be 70 a6 d2 3f 3b aa 57 40 71 cd 91 3f
       -0.16355038 1.6457043 3.369765 1.1390821
000360 0b f5 3a 40 00 33 26 bf c2 6b 35 bf 3c 90 a5 bf
       2.9212062 -0.6492157 -0.7086755 -1.2934642
000370 f4 81 f2 bf 42 87 14 c0 d5 cf 8e 3d bf 61 ab 3f
       -1.8945909 -2.3207555 0.069732346 1.3389205
000380 bf 5b 28 bf 38 21 25 bf c2 b9 2c 3e 5b 5f b7 3f
       -0.65764993 -0.6450381 0.16867736 1.4325975
000390 5b cb 99 3f 28 d7 31 be 03 e5 97 bf f3 87 b8 3e
       1.2015184 -0.17367232 -1.1866764 0.3604122
0003a0 ce d1 52 3f 1f e3 83 bf f6 a6 2c 3f cb 6a 21 bc
       0.82351387 -1.0303687 0.6744226 -0.009852122
0003b0 43 8b 80 3e 16 9e 7d 3f 96 f8 e9 bf fe 2d 37 3f
       0.25106248 0.99069345 -1.8278987 0.71554554
0003c0 3e a9 29 be 6f 15 86 c0 ef 48 76 3f 8b 94 aa 3f
       -0.16568467 -4.1901164 0.9620504 1.3326582
0003d0 b9 40 93 3f cf 60 82 bf b2 5b b4 3e 60 2c 53 3f
       1.1504127 -1.0185794 0.35226208 0.82489586
0003e0 aa a0 89 3f ad f0 9b bf ab 7f d3 3e f7 15 08 bf
       1.0752156 -1.2182823 0.4130834 -0.53158516
0003f0 e3 22 d1 3e f3 0c 44 3e 1a ba 03 bf dc 74 66 3f
       0.4084693 0.19145565 -0.51455843 0.90022063

final.bias f4 [27]
000000 76 ff 40 40 5f e7 a3 40 43 cd 77 3f fa c2 1b 40
       3.015592 5.1219935 0.9679758 2.4337754
000010 ac 9d dc 40 df 3f ee 3e 55 7e ef 3f 67 6e 79 40
       6.894247 0.46533105 1.8710428 3.8973634
000020 64 bf bd 3e 29 59 30 40 78 8d 94 40 0b 67 45 bf
       0.37060082 2.755442 4.642269 -0.77110356
000030 c0 51 0f 41 7d 1b a9 c1 8a b7 a0 40 48 36 96 40
       8.9574585 -21.138422 5.0224047 4.694126
000040 b4 3a 1d 41 8b 69 a2 3f 0e fd fe 3f 25 14 ef 3f
       9.826832 1.2688459 1.9920976 1.8678023
000050 79 59 c5 3f 86 ea 46 40 3a 25 33 41 db be 10 40
       1.541793 3.1080642 11.1965885 2.261649
000060 29 9b 40 40 3c 39 59 40 65 27 2e 40
       3.0094702 3.3941183 2.7211545

exp_avg f4 [16, 42]
000000 4d 09 2c 42 ae 2b 4a 42 82 0d a4 40 24 ef c6 bf
       43.009083 50.542656 5.126649 -1.554173
000010 94 b3 d7 3f 8c f9 f7 be d6 d1 25 42 46 e9 50 42
       1.6851678 -0.48432577 41.454918 52.227806
000020 e5 8d 94 40 50 db 70 42 d8 ad 56 42 d0 71 89 40
       4.642321 60.214172 53.66977 4.295143
000030 59 bc f1 be e1 5f e0 b9 1a 28 45 40 d2 2d 92 43
       -0.4721401 -0.00042796045 3.0805726 292.35797
000040 d9 2a c6 bc 95 84 c0 bc d1 9b a9 bc 93 0f eb ba
       -0.024190353 -0.02350072 -0.020704182 -0.0017933719
000050 ab f5 b0 3b b3 09 e4 3b 57 03 1e 3e af 1c 9b 3d
       0.0054003797 0.006959164 0.15430962 0.0757383
000060 91 ac 8d 3d 98 13 81 bd b9 21 03 bd 0f 10 fa bc
       0.0691768 -0.06302565 -0.032014582 -0.030525235
000070 fe d5 34 bd 04 00 00 80 01 b4 e7 3d 48 d8 4c 3d
       -0.04414939 -6e-45 0.1131363 0.05001095
000080 3c fb 55 3d 1f ab 38 3e 1e a1 43 3e 8a 04 70 3e
       0.05224155 0.18034028 0.1910443 0.23439232
000090 e6 9c 4a 3d 47 38 b2 3d ef 3c 1b 3e 0c bb 96 3e
       0.049466036 0.0870214 0.15159963 0.2943958
0000a0 14 1e 65 3e f4 71 7e 3e f0 d7 0b c3 01 b0 3c c3
       0.22374755 0.24848157 -139.8435 -188.68752
0000b0 4c a5 cb c1 2b 62 2b c2 7c 4b c6 c1 a2 8a c7 bf
       -25.455711 -42.845867 -24.786858 -1.5589182
0000c0 7b b0 36 c3 70 79 55 c3 f4 1d d8 c1 14 f0 80 c3
       -182.68938 -213.47437 -27.014626 -257.8756
0000d0 de 55 32 c3 7c ec a9 c2 34 e3 b9 be a3 49 78 3a
       -178.33542 -84.96188 -0.36306155 0.0009471422
0000e0 75 ab 9a c1 27 32 5b c4 57 e3 21 3e 20 ca a7 3d
       -19.33372 -876.7836 0.1580938 0.08192849
0000f0 4b 51 99 3d b0 43 2a bd dd c8 92 bb 75 b8 99 bb
       0.074862085 -0.041568458 -0.004479511 -0.0046911784
000100 7e d8 de be 3c fd d9 bd 80 b6 e7 bd d6 0e a8 3e
       -0.43524545 -0.10644004 -0.11314106 0.3282382
000110 52 50 b7 3d 62 c6 a8 3d fd 4d 0d 3e 04 00 00 00
       0.08950867 0.082409635 0.13799281 6e-45
000120 8b 3d 84 be 1b bb 99 bd 68 fe bb bd d4 85 11 be
       -0.25828204 -0.07506391 -0.091793835 -0.14211208
000130 30 5a 8d be af 58 c1 be 2a bf 88 bd 7c 0c eb bd
       -0.2760787 -0.37762973 -0.06677087 -0.114769906
000140 c2 48 8d be dc b1 42 bf 81 bd d4 be 76 89 f5 be
       -0.27594572 -0.7605264 -0.4155083 -0.47956437
000150 43 5f be 41 fa b0 7c 41 3a c0 d8 3f 71 2b 23 c1
       23.796515 15.793207 1.6933663 -10.198106
000160 62 5c 8a c0 07 81 e6 3e 12 93 59 41 c4 82 37 41
       -4.323777 0.45020315 13.598406 11.469425
000170 42 30 09 40 b4 00 db 41 6f d3 0c 42 40 73 49 c0
       2.1435704 27.375343 35.20648 -3.1476593
000180 99 a6 c7 bf b8 d4 a0 39 50 07 e1 3e 85 2f 85 43
       -1.5597717 0.00030676066 0.43950891 266.37125
000190 54 bb 76 3d a9 5e c0 3b ee f9 ed 3b ca f1 3b bc
       0.060237244 0.0058706594 0.00726246 -0.011471221
0001a0 08 17 0d 3c fe fd e6 3b b3 fc 32 ba 73 4c 7d 3d
       0.008611448 0.007049321 -0.0006827816 0.061840486
0001b0 34 3d 7c 3d 4d 00 d5 3d 5a f7 c5 bb 47 d4 38 bb
       0.061581805 0.10400448 -0.0060414495 -0.00282027
0001c0 4d 1c f3 3c 04 00 00 80 a8 42 46 3d b9 04 17 3d
       0.02967658 -6e-45 0.048403412 0.03686974
0001d0 b8 08 36 3d ce 5d cb 3e c5 5f 57 3e f9 15 10 3e
       0.04444191 0.39720005 0.21032627 0.14070882
0001e0 4c b0 39 3e d1 10 c7 3d 5b 23 f5 3c fa 32 4a 3e
       0.18133658 0.09720004 0.029924085 0.19746009
0001f0 d3 9b f1 3d 76 5c a0 3d 83 29 25 42 d5 93 46 42
       0.11797299 0.078301355 41.29054 49.644367
000200 18 47 8c 40 40 9f 6c 3d de b4 64 bf 48 01 ce 3e
       4.3836784 0.05776906 -0.8933848 0.40235353
000210 ae 64 25 42 fe 00 43 42 29 27 99 40 41 f0 73 42
       41.34832 48.75097 4.7860303 60.984623
000220 a2 18 5b 42 b5 7e e8 40 8b 35 14 be 1d 29 cf 39
       54.774055 7.265467 -0.1447355 0.00039512748
000230 a0 5e 8d 40 9a e4 b4 43 f6 d0 4a 3d 70 70 dd 3c
       4.417801 361.78595 0.049515687 0.027031153
000240 43 34 e3 3c 42 a0 00 bb 3d 85 60 3b ba f7 83 3b
       0.027734881 -0.001962677 0.0034259104 0.004027334
000250 24 b0 75 3d 9c 1a 75 3d 7e a4 5b 3d a5 7f 71 3c
       0.059982434 0.05983983 0.05362367 0.0147399055
000260 c7 1f 81 3c e8 81 83 3c 4e d8 08 bd 04 00 00 80
       0.015762223 0.016053155 -0.03340941 -6e-45
000270 3b e7 f2 3c 9e b1 32 3d 68 93 33 3d f6 79 f8 3e
       0.029651275 0.04362642 0.04384175 0.4853055
000280 fe 9d f3 3e f0 e1 e7 3e 8d 80 b2 3e 5a 5c c5 3e
       0.47581476 0.45289564 0.348637 0.3854702
000290 ac 3d c2 3e 03 14 d4 3e 8a 29 de 3e 7b 6a d6 3e
       0.37937677 0.41421518 0.43391067 0.41878113
0002a0 8b ef 0d c3 cd 8a 3a c3 e3 5b c4 c1 3f 19 ce c1
       -141.93571 -186.54219 -24.544867 -25.762327
0002b0 1e 85 05 c1 69 1a ed be b2 b2 27 c3 1d e3 42 c3
       -8.344999 -0.46309212 -167.69803 -194.88716
0002c0 4d 10 c8 c1 c1 46 54 c3 c3 b9 32 c3 2c 74 48 c2
       -25.00796 -212.27638 -178.72563 -50.11345
0002d0 88 e0 30 bf e8 a9 6e 39 68 1d 93 c1 28 09 78 c4
       -0.6909261 0.00022760744 -18.389359 -992.14307
0002e0 19 8c fd 3d 15 62 95 3d 97 2c 84 3d 9f e4 3d bd
       0.12380237 0.07294098 0.06453817 -0.04636061
0002f0 1e 72 8a ba e5 3e 99 bb 21 00 ad be d0 5b e6 bd
       -0.0010562574 -0.004676687 -0.3378916 -0.112479806
000300 49 15 e1 bd 1a ca b5 3e cd 19 9e 3d 08 d7 93 3d
       -0.10990388 0.35505754 0.07719765 0.07218748
000310 4a 72 49 3e 04 00 00 80 54 d4 9c bd bc 4c ad bd
       0.19672504 -6e-45 -0.07657686 -0.084619015
000320 65 c8 b9 bd d8 47 fc bd ad a5 af be ce ee e2 be
       -0.09071425 -0.123183906 -0.34306088 -0.4432282
000330 ce ca e5 bd aa e5 8e be b6 40 da be c5 80 0a bf
       -0.112203225 -0.27909595 -0.42627496 -0.54102737
000340 9b 72 00 bf bb 93 0f bf 7f 65 0b c2 cc af e5 c1
       -0.50174874 -0.56084794 -34.849117 -28.710838
000350 b2 f3 8a c0 2c cb b6 40 18 72 17 bf 31 2d 88 3f
       -4.342248 5.7123013 -0.5915847 1.0638791
000360 31 18 e9 c1 58 6b ea c1 d1 d0 51 c0 40 21 4a c2
       -29.136812 -29.302414 -3.2783701 -50.53247
000370 81 e8 3b c2 c0 8f c0 3f 44 cb 76 3f 12 1e 0c 3a
       -46.977055 1.5043869 0.9640391 0.0005345057
000380 b2 35 dd bf 58 59 85 c3 9c 4c b8 3d 03 89 aa 3d
       -1.7282012 -266.698 0.08998987 0.08326914
000390 37 cf 97 3d 8a b8 20 3c 97 e3 b7 bb 34 1b 09 bc
       0.0741257 0.009809623 -0.0056118476 -0.008368302
0003a0 4b 8a f6 bd f2 5f 40 bd 73 a2 42 bd 1b f4 0d 3e
       -0.12038096 -0.0469665 -0.047518205 0.1386265
0003b0 cf 23 bf 3d 1b 52 b1 3d 1c 44 7a 3d 04 00 00 00
       0.09333002 0.086582385 0.06110011 6e-45
0003c0 3a d1 98 bd b6 85 b6 bc 64 f8 ea bc 45 5f ca bd
       -0.07461782 -0.022280555 -0.028682895 -0.098814525
0003d0 33 54 9a bd b8 95 01 be 1e e3 99 3c 11 0a 0e 3c
       -0.07535591 -0.1265477 0.018785056 0.008669392
0003e0 9a f9 98 bd 49 4b 87 be bf 9c 0e be 49 b1 37 be
       -0.07469483 -0.26424626 -0.13926981 -0.17938723
0003f0 8b 3f a2 c2 a0 3f ec c2 46 be 5c c1 e0 63 c6 c1
       -81.12411 -118.12427 -13.796453 -24.798767

exp_avg_sq f4 [16, 42]
000000 da fe 37 48 35 86 18 48 f6 7d e8 45 39 69 08 47
       188411.4 156184.83 7439.745 34921.223
000010 cd 76 b0 45 b8 35 1d 44 62 c4 ad 48 c6 0b 2c 48
       5646.85 628.83936 355875.06 176175.1
000020 66 c2 83 45 13 85 f5 48 74 98 8c 48 40 14 be 47
       4216.3 502824.6 287939.62 97320.5
000030 04 6d ce 41 98 7b 57 39 7b 82 bf 45 0f fe 2d 4b
       25.80323 0.0002055004 6128.31 1.1402767e+07
000040 85 33 84 3f ea 81 00 3f 1a 24 d2 3e 13 7f 76 3f
       1.0328223 0.50198233 0.41043168 0.9628765
000050 ff 23 9f 3e b7 e6 9d 3e 30 68 b6 3f 0a c5 0b 3f
       0.3108215 0.30840084 1.4250546 0.5459753
000060 c7 88 00 3f 54 55 33 3f 95 1c b5 3e 36 e8 83 3e
       0.50208706 0.70052075 0.3537337 0.257631
000070 95 fc d7 3e f4 01 00 00 58 c8 6f 3f 7b a4 a6 3e
       0.42184892 7e-43 0.93665075 0.32547364
000080 d3 82 8f 3e 4b 75 d7 3f fa 2d a9 3f 72 ef 87 3f
       0.28029498 1.683267 1.3217156 1.0619948
000090 9a 08 e6 3f b0 91 b5 3f 44 c4 9b 3f 3c 4c 01 40
       1.7971375 1.4185085 1.216927 2.020278
0000a0 2e 8a c9 3f 8c 10 ac 3f 0c 89 63 49 b4 c4 32 49
       1.5745294 1.344255 931984.75 732235.25
0000b0 20 87 1c 47 f7 2c 08 48 32 90 5a 47 62 4d f5 44
       40071.125 139443.86 55952.195 1962.4182
0000c0 7d 79 c9 49 9c d9 40 49 40 fe da 46 1b d1 25 4a
       1.6504796e+06 789913.75 28031.125 2.7167428e+06
0000d0 ef 7e bc 49 2c 54 ef 48 d8 09 e7 42 64 b2 2b 3a
       1.5441579e+06 490145.38 115.519226 0.00065497146
0000e0 a8 c1 eb 46 43 88 5e 4c 8a 15 74 40 b4 a1 d5 3f
       30176.828 5.83355e+07 3.8138146 1.6689973
0000f0 d4 bc 95 3f f0 2e 8f 40 8b 4c b8 3f 2e 3c b5 3f
       1.1698251 4.4744797 1.4398359 1.415899
000100 75 71 c8 40 92 23 0b 40 5f 42 fd 3f 39 ba 37 40
       6.2638497 2.174046 1.978588 2.8707411
000110 22 c6 91 3f f4 3b 24 3f e3 60 27 40 f4 01 00 00
       1.138859 0.6415398 2.6152885 7e-43
000120 34 ac 8a 40 68 56 6f 3f 68 34 43 3f 0b eb b0 40
       4.333521 0.9349122 0.7625184 5.528692
000130 c2 d7 67 40 0a fc 22 40 bb c7 a7 40 10 1b 28 40
       3.6225438 2.5466332 5.243131 2.6266518
000140 72 53 0f 40 79 e9 e7 40 e5 c7 9a 40 d5 3c 8c 40
       2.239468 7.24725 4.836901 4.382426
000150 1c 0c aa 47 59 7c d1 47 ca f1 8e 45 46 dd 44 47
       87064.22 107256.695 4574.2236 50397.273
000160 f4 a3 44 46 fa d6 d8 43 4c 44 72 48 16 8c d1 47
       12584.988 433.6795 248081.19 107288.17
000170 9b eb 25 45 23 f7 b5 48 f8 ed f3 47 9c e5 07 48
       2654.7253 372665.1 124891.94 139158.44
000180 af 1c 9d 41 4e 82 51 39 ee 81 7f 45 30 da 8c 4a
       19.639006 0.00019980335 4088.1206 4.615448e+06
000190 e8 7b c5 3f 0a dd 62 3f 63 0c d1 3e 43 ec 50 3f
       1.5428438 0.8861853 0.40829763 0.81610507
0001a0 d4 2a ec 3d b5 c4 e8 3d 21 95 93 3f 63 67 00 3f
       0.11531606 0.11365644 1.1529886 0.50157756
0001b0 7d 81 c1 3e a5 7d c1 3f bd c8 60 3f 14 1d c4 3e
       0.37794104 1.5116469 0.878063 0.38303435
0001c0 c4 0b 29 3f f4 01 00 00 27 2f 83 3f 67 c4 d6 3e
       0.6603358 7e-43 1.0248765 0.41946718
0001d0 c9 5d 9b 3e 52 cd 80 40 7c 99 56 40 5f dc 0d 40
       0.3034499 4.0250635 3.353118 2.2165754
0001e0 0d 64 a7 40 b6 1f 91 40 5b 3e 26 40 e7 d7 a5 40
       5.230963 4.535121 2.5975559 5.1826053
0001f0 ce 72 91 40 ba 68 23 40 9c 0f 99 47 a1 a1 b3 47
       4.5452642 2.553267 78367.22 91971.26
000200 c2 3b 69 45 e5 b0 07 47 32 c2 3c 46 22 d7 99 43
       3731.7349 34736.895 12080.549 307.68073
000210 c4 09 3c 48 c9 99 82 47 17 3a 11 45 d3 36 8e 48
       192551.06 66867.57 2323.6306 291254.6
000220 42 f7 e1 47 c6 4a c1 47 22 58 8c 41 f0 f3 49 39
       115694.516 98965.55 17.543034 0.00019259728
000230 2b 1f 53 45 de 5e 89 4a ad 1f 8e 3f 32 ae 66 3f
       3377.948 4.501359e+06 1.1103417 0.9010955
000240 c8 9c 0c 3f 76 39 8f 3e 39 e6 b9 3d d1 40 b9 3d
       0.5492673 0.27973527 0.090771146 0.09045566
000250 dc 94 de 3e 36 6b 81 3e 04 e9 4e 3e bd e9 93 3f
       0.43472946 0.25277108 0.20206076 1.1555706
000260 da 46 6a 3f 69 62 04 3f aa 42 48 3e f4 01 00 00
       0.9151436 0.5171266 0.1955668 7e-43
000270 98 8c c7 3e 3f c2 3b 3e a7 4d 08 3e be a3 b8 40
       0.38974452 0.18335818 0.13310872 5.769988
000280 70 6b af 40 c2 a2 67 40 c0 78 ac 40 45 a7 a5 40
       5.481865 3.619309 5.38974 5.1766686
000290 cb fe 5a 40 81 73 83 40 7d 44 79 40 ac e1 08 40
       3.4218013 4.1078496 3.8948052 2.138774
0002a0 3d 7f 10 49 a0 35 cb 48 11 ff ab 46 fe f9 48 47
       591859.8 416173.0 22015.533 51449.992
0002b0 06 db 8f 46 ab 79 8e 44 7f 5b 5f 49 95 19 e8 48
       18413.512 1139.8021 914871.94 475340.66
0002c0 d9 6d 6e 46 9b 06 ae 49 40 ad 76 49 f5 cf 2b 48
       15259.462 1.4256194e+06 1.010388e+06 175935.83
0002d0 0b 68 9f 42 97 cf d0 39 69 e7 80 46 2d 7b 17 4c
       79.70321 0.00039827518 16499.705 3.9709876e+07
0002e0 ba 53 16 40 ca a8 46 3f 70 ec 26 3f e4 0b 67 40
       2.3488603 0.776013 0.65204525 3.6101007
0002f0 f0 32 91 3f da a8 8f 3f e7 ea 94 40 9f e4 be 3f
       1.134367 1.1223404 4.6536746 1.491352
000300 e5 49 af 3f 38 1c 05 40 1c 62 13 3f 80 fa e5 3e
       1.3694426 2.0798473 0.5757158 0.4491768
000310 84 f4 17 40 f4 01 00 00 12 95 58 40 57 b8 ed 3e
       2.374299 7e-43 3.3840985 0.46429703
000320 36 6c b0 3e 2e bb 81 40 20 e9 20 40 35 85 fb 3f
       0.34457558 4.054099 2.5142288 1.9650027
000330 45 93 8e 40 b1 9a 07 40 de 9a df 3f 65 0f b3 40
       4.455477 2.1188166 1.7469137 5.595629
000340 fd 9b 50 40 79 ef 33 40 55 33 2f 48 2f 5c 3b 48
       3.2595208 2.8114913 179405.33 191856.73
000350 ac 2f 00 46 f8 4d 77 47 08 a5 60 46 d5 14 1b 44
       8203.918 63309.97 14377.258 620.3255
000360 e2 7c ce 48 d3 68 4c 48 e0 7b 9d 45 76 64 15 49
       422887.06 209315.3 5039.4844 611911.4
000370 24 13 71 48 eb 59 32 48 b0 8f d0 41 f3 2a 9a 39
       246860.56 182631.67 26.07016 0.0002940517
000380 cd bb e3 45 95 f4 15 4b f2 bb c5 3f b0 2f 84 3f
       7287.475 9.827477e+06 1.5447981 1.0327053
000390 a2 5e 15 3f ef 89 63 3f 8d b8 a1 3e a8 c7 9d 3e
       0.58347523 0.88882345 0.31586114 0.30816388
0003a0 e6 90 b1 3f dc 5f 13 3f 45 02 07 3f 8c a9 a2 3f
       1.3872344 0.57568145 0.5273784 1.2707992
0003b0 fb c3 46 3f ee 90 a8 3e ce 0b 01 3f f4 01 00 00
       0.7764279 0.32923073 0.5040864 7e-43
0003c0 c9 37 86 3f bf a5 ab 3e a6 b1 94 3e b2 7c 3c 40
       1.0485774 0.33524892 0.29041785 2.9451108
0003d0 4c d9 11 40 e0 ce c5 3f 4f 7c 1a 40 20 c8 eb 3f
       2.2788877 1.5453758 2.4138372 1.8420448
0003e0 82 df d1 3f 7f 95 3a 40 a1 70 14 40 4c ad 05 40
       1.6396334 2.9153745 2.3193743 2.0887022
0003f0 11 2d cf 48 60 00 97 48 dd 0d 8b 46 45 c6 67 47
       424296.53 309251.0 17798.932 59334.27

exp_avg f4 [16]
000000 aa 80 0b 3f c4 7a 1b c0 1e 30 59 3e 06 45 09 3f
       0.544932 -2.429368 0.21209762 0.53620946
000010 9a b8 0f c0 32 d1 be be 65 c9 b6 bf 7a 18 48 3f
       -2.2456422 -0.37268978 -1.4280211 0.7816235
000020 d4 0f 88 3f 83 49 45 40 b6 d3 e0 bf f2 96 1b 3f
       1.062983 3.0826118 -1.7564609 0.607772
000030 3e 6c 8c bf 16 f9 0a 40 6e e9 5c 3f 78 8a 4b be
       -1.0970533 2.171453 0.86293685 -0.1987704
