Qtarget.pth (torch, 39214 bytes, 30 tensors)

layer1.0.weight f4 [16, 42]
000000 c4 83 cc 3d bf 6e 81 be d4 39 a7 bf 0b 99 d9 3e
       0.0998607 -0.25279805 -1.3064523 0.42499575
000010 3a 09 6a 3f 80 73 83 3f d0 ab 3e 3d 73 d7 fa 3d
       0.9142033 1.0269623 0.046550572 0.12248125
000020 42 39 78 bf 18 22 0c c0 1d f2 35 3f ef e1 8e 3f
       -0.9696237 -2.189581 0.7107256 1.11627
000030 6d 86 cd bf da 10 0a 42 e3 e1 9a 3c 47 97 40 bd
       -1.6056648 34.516457 0.01890654 -0.04701927
000040 bf ec fa 3f 7e 9b 3b 40 36 b8 2f 40 ab d6 f8 3f
       1.9603499 2.9313655 2.7456183 1.9440511
000050 68 d1 87 3f 71 14 21 40 b2 ec 93 40 7d d4 61 40
       1.0610781 2.5168726 4.6226435 3.5285943
000060 26 43 0a 40 b3 df cd 3f 13 ec 30 40 7b 8c e7 3f
       2.1603484 1.6083893 2.7644088 1.8089746
000070 95 af fa 3f 3c 4d 47 41 b9 ad b3 3f 83 4a 64 40
       1.9584833 12.456356 1.4037391 3.5670478
000080 2f 16 22 40 fc 1f d8 3f 51 19 b4 3f 9e d1 e0 3f
       2.532604 1.6884761 1.4070226 1.756397
000090 23 91 4c c0 b0 c4 b6 bf 42 33 45 bf 6f 25 0b 3d
       -3.1963584 -1.4278774 -0.7703134 0.033971246
0000a0 70 f4 15 40 30 8c 95 3f 38 13 81 be 98 94 38 3e
       2.3430443 1.1683407 -0.25209975 0.18025434
0000b0 14 eb 9b be af 63 20 3f 8a b3 a6 be bb ee 53 bf
       -0.30452788 0.62652105 -0.32558852 -0.8278615
0000c0 7b 22 6e 3e 7f e9 a0 be b3 1b 0a be 53 e2 90 3f
       0.23255341 -0.31428143 -0.13487129 1.1319069
0000d0 3a 7f 56 bf 4e dd 02 c0 fc b1 b8 be 7d 1b a2 c1
       -0.8378788 -2.0447574 -0.3607329 -20.263422
0000e0 0e 9e 79 be 30 4e c7 bd 1b 89 19 c0 01 57 8c bf
       -0.243767 -0.0973171 -2.3989933 -1.0964051
0000f0 1b 32 2d 40 bf 4a e7 be 87 11 50 3f 09 d3 1a 3e
       2.7061832 -0.45174214 0.81276745 0.15119566
000100 38 5e e6 40 1b f7 90 c0 d3 69 d0 3f c7 18 eb 3e
       7.1990013 -4.5301642 1.6282295 0.4591734
000110 18 ac ad bf 12 48 6c 40 f6 fd da bf 6b f7 a5 bf
       -1.3568144 3.6918988 -1.7108753 -1.2966131
000120 c3 f8 9f 3f 14 1e a2 c0 e2 02 68 c0 0f 63 34 c0
       1.2497791 -5.0661716 -3.625176 -2.818546
000130 31 2d ed c0 cf 7e b3 c0 80 3b 55 c0 95 b2 9a bf
       -7.4117665 -5.6092296 -3.3317566 -1.2085749
000140 88 cd e3 3f a4 21 ac bf 22 56 02 c1 97 98 e3 3f
       1.7797098 -1.3447766 -8.1460285 1.7780942
000150 98 f5 0c bf ef 31 84 3d 55 9d b6 be 2e 01 83 bf
       -0.55062246 0.064548366 -0.3566691 -1.0234735
000160 64 27 f0 be 2d bc 4c 3f f2 87 15 bf ba 18 d5 be
       -0.46905053 0.79974633 -0.5841056 -0.41620427
000170 4d 2a de 3d 9f 5a 90 3f 28 eb a0 bf 81 2f 7b bf
       0.10847912 1.1277655 -1.2571764 -0.9811936
000180 97 84 d9 3f 14 41 bd c0 7c 78 10 be 26 29 b3 bc
       1.6993588 -5.914194 -0.14108461 -0.021870207
000190 30 a1 1c 40 67 76 97 3f a2 e1 c4 be 69 09 93 40
       2.447338 1.1833009 -0.38453394 4.5948987
0001a0 f2 79 58 c0 80 0c 93 c0 ae 30 91 c0 82 08 4a c0
       -3.382443 -4.595276 -4.5371923 -3.1567693
0001b0 8a c6 a8 bf af 94 cb 40 36 eb a5 40 68 e0 dd be
       -1.3185589 6.3619 5.1849623 -0.4333527
0001c0 10 f6 c4 40 ee 38 64 3e ea 61 a7 40 5d 33 5a c0
       6.155037 0.22287342 5.2307024 -3.409385
0001d0 3f ed 40 c0 44 4b e0 40 ea c5 44 41 35 3c f6 bd
       -3.0144804 7.0091877 12.298319 -0.12023202
0001e0 55 c2 36 41 7c 11 26 41 f3 33 ce 40 ea 3c c0 40
       11.422444 10.379269 6.4438415 6.007436
0001f0 ce 90 fb 40 25 b9 3e c0 68 f4 67 be 7c 36 52 bc
       7.8614264 -2.9800503 -0.22651827 -0.012830373
000200 53 9f b9 bf b5 2b 61 3f e2 05 bc bf 38 98 4b bf
       -1.4501747 0.87957317 -1.4689295 -0.7952914
000210 ce 27 ef 3c 44 58 0b be 7e f2 ec bf a0 25 d8 3e
       0.029193785 -0.1360789 -1.8511503 0.42216206
000220 2c fe 3e bf 58 de 54 bf 5f 73 04 41 43 b5 c0 41
       -0.74606586 -0.8315177 8.278167 24.088507
000230 6a f8 e9 3e 87 e0 bf 3d 85 75 e9 bf 85 a0 35 40
       0.45697337 0.09368997 -1.8238989 2.8379223
000240 d9 05 8e 40 60 f3 8e bf d4 c3 74 c0 ea 91 10 3f
       4.438214 -1.1168022 -3.8244524 0.5647265
000250 68 98 ea 40 5a 5a 93 c0 a5 b4 01 c0 aa b6 6b 3e
       7.3311043 -4.6047792 -2.0266507 0.230189
000260 0e 67 85 40 13 6e 8d 40 4e 2d 34 c1 85 65 4c c1
       4.16883 4.419687 -11.261061 -12.774785
000270 a7 cd 5f c0 05 32 20 c1 e6 f4 2b bf bc 51 ac bf
       -3.496927 -10.012212 -0.6717056 -1.3462443
000280 e9 60 03 41 76 92 16 41 b8 fe c4 be 9b b0 1f 40
       8.21116 9.410757 -0.38475585 2.4951541
000290 b9 2b 9e 40 11 ce d6 c0 77 46 5c 40 b1 7d 49 40
       4.942837 -6.7126546 3.4418008 3.1482966
0002a0 77 42 80 3e 06 6d e9 3d 09 cf 18 3d 50 50 15 40
       0.2505071 0.11397748 0.03730682 2.333027
0002b0 d8 78 0c be f3 7a a4 40 dd b9 29 3f e0 53 7f 3e
       -0.13717973 5.1400084 0.6629923 0.2493434
0002c0 c1 f6 e4 3e 66 14 36 3e 7d ba cc bd b5 3b e0 bf
       0.44719508 0.17781219 -0.09996507 -1.7518221
0002d0 12 19 39 bc 0c 4e 51 be c9 8d 2d 3e 78 09 24 3c
       -0.011297481 -0.20439929 0.16948618 0.010012023
0002e0 b3 ac 88 3f f4 d4 ca 40 50 8b e0 c0 24 36 48 40
       1.0677704 6.3384953 -7.017006 3.1283045
0002f0 3e 0c 66 3f ff a8 13 40 3e 43 db c0 9f 8f 30 41
       0.8986243 2.3071897 -6.8519583 11.035064
000300 6a 05 9e c0 e4 11 a5 40 69 26 29 bd 9f 76 1e bf
       -4.938161 5.158434 -0.041296396 -0.6189975
000310 a2 cf 48 bf 24 73 d6 40 de a6 4d 40 2a db 36 c0
       -0.7844182 6.7015553 3.2133098 -2.8571267
000320 11 51 4f bf 66 c9 e9 bf 94 b3 04 41 e0 07 2f c0
       -0.8098307 -1.8264587 8.293842 -2.7348557
000330 08 20 74 40 6e 1e 0e 41 46 05 1c 40 3b 96 5d 40
       3.814455 8.882429 2.4378219 3.4622943
000340 d5 ba 38 40 9c 8f 02 c0 1a d3 0a 3f b2 3f 01 3e
       2.8864033 -2.0400152 0.54228365 0.12621954
000350 5b 9a 27 40 32 a3 37 c0 94 16 2e bf 5a 7d 72 be
       2.618796 -2.8693357 -0.680032 -0.2368063
000360 00 b0 a9 3f 4e 66 45 3e f6 e9 2e 40 4b 4e 51 3e
       1.3256836 0.19277307 2.7330298 0.20440023
000370 e5 d2 6d be 03 17 6d 3f 20 39 18 bf b7 63 0e bf
       -0.23224981 0.9261324 -0.59462166 -0.556209
000380 32 04 e9 3e c7 0c 31 be fc 4b fe 3f 07 7e be 3f
       0.45511013 -0.1729003 1.9866939 1.488221
000390 53 cc 15 40 1e ae d7 40 98 34 b7 c0 93 c1 86 be
       2.340596 6.7400045 -5.72517 -0.2631956
0003a0 73 17 46 3f 31 33 fa be ff 50 01 c0 47 7d b8 40
       0.7737953 -0.4886718 -2.0205686 5.7652926
0003b0 ea 9b 32 c0 2f 3d cb 40 57 23 82 3f e3 c8 ee 3f
       -2.7907662 6.3512187 1.0167035 1.8655056
0003c0 4b 2a a3 3e ed 51 c2 3f 57 3c 74 40 12 62 03 40
       0.31868204 1.5181252 3.8161829 2.0528607
0003d0 1f 8e b8 40 ab cd f8 bf c8 a7 f8 40 24 10 31 3f
       5.767349 -1.9437765 7.770481 0.69165254
0003e0 ba e4 0e 40 a2 1a 2b c0 8a 7c c5 40 89 27 b0 c0
       2.2327104 -2.6735005 6.1714525 -5.504826
0003f0 5e 16 94 be 11 15 de bd 65 a8 09 3e 11 33 76 3e
       -0.28923315 -0.10843862 0.13443144 0.24042918

layer1.0.bias f4 [16]
000000 8e fe 87 40 bb c6 6a 41 28 8c 9d bf d3 9f ba c0
       4.2498236 14.673518 -1.2308397 -5.83201
000010 bc 1d d6 40 e2 5f 1f 41 6c d5 d9 3f f0 3f 2f 40
       6.6911297 9.960909 1.7018256 2.7382774
000020 8a ea 62 3f 0b bd 4a c1 3a 83 8f c0 99 e0 a3 40
       0.8863913 -12.671153 -4.484769 5.1211667
000030 c4 0c 38 40 fd b1 8a 3e ff 60 24 bf 68 5f 47 c0
       2.8757792 0.2708892 -0.64210504 -3.1151981

layer2.0.weight f4 [16, 16]
000000 77 4a 8e 3d df 8f 29 3f 2a 4f b8 bf 83 62 24 bf
       0.06947797 0.66235155 -1.4399159 -0.64212817
000010 8d 73 2a 3e 54 9f e8 3e cc bb 33 bd 61 de 17 bf
       0.16645642 0.45434058 -0.04388027 -0.593237
000020 ea d8 2c bf 48 38 30 3e 02 2d b7 be 13 89 9b 3e
       -0.67518485 0.1720897 -0.35776526 0.30378017
000030 25 d1 c0 3e d5 91 a9 3d f9 06 33 bf 72 ee df 3e
       0.37659565 0.082797684 -0.69932514 0.43736607
000040 2f d0 09 c0 d9 a1 24 3f a8 29 82 3f d9 59 8c be
       -2.1533315 0.6430946 1.0168962 -0.27412298
000050 7c 44 0a 3d 91 d7 54 be 0c 7a b8 3f cc 0b eb be
       0.033756718 -0.20785357 1.4412246 -0.45907438
000060 01 3e 9f bf d7 ae 82 3e ec ce 86 3f 86 2f 79 bf
       -1.2440797 0.25524017 1.0531898 -0.9733814
000070 b8 73 cd bf 3c 08 30 3f 29 fe 88 be 75 58 13 3f
       -1.605094 0.68762565 -0.2675641 0.5755685
000080 a1 d5 13 be 9b 22 d1 bf b4 b5 83 bf 68 b5 5f bf
       -0.14436962 -1.6338686 -1.0289826 -0.8738618
000090 80 89 3e bf d3 d1 0b 3f db 42 a0 be c4 e5 55 3d
       -0.7442856 0.5461704 -0.31301007 0.052221075
0000a0 84 c9 f8 be 5e 7f 58 3f fe 89 9a bf e2 a1 16 3f
       -0.48591244 0.84569347 -1.2073362 0.58840764
0000b0 b6 1b e2 bc d9 fa bd 3f 64 c7 13 3e 93 85 3c 3e
       -0.027601104 1.4842178 0.1443153 0.1841033
0000c0 14 6c 07 be 4d ae 8d bf 55 84 dc 3e ee 0f 07 bf
       -0.13224822 -1.1068817 0.4306971 -0.5275868
0000d0 fa 6f f2 be f9 b1 52 bf a6 06 33 3f ca d6 5c bf
       -0.47351056 -0.82302815 0.6993202 -0.8626524
0000e0 ec 9d b8 bc 63 63 35 3f 04 ad 07 bf 73 49 03 bf
       -0.02253624 0.7085478 -0.52998376 -0.5128395
0000f0 9f b8 ed be 8d e0 10 40 dd 0d 05 be 49 5f de be
       -0.46429917 2.2637055 -0.1299357 -0.43432072
000100 8f 7e 90 3f ac 09 4f 3f 72 ef 4a 3e 0c 32 a2 3f
       1.1288623 0.80874133 0.19817904 1.2671523
000110 0b 8f 33 3f f1 8c c0 bc e3 69 d7 3f 56 88 f2 bd
       0.7014014 -0.023504706 1.6829189 -0.1184241
000120 82 cd a9 3e 67 7b 2a bf c7 38 10 bd bc ab 1d bf
       0.33164603 -0.6659455 -0.035210397 -0.6159017
000130 d7 24 61 bf bb 0d e5 3f e2 bd 14 3f 78 68 cc 3e
       -0.8794684 1.7894815 0.5810224 0.39923453
000140 b1 ed 82 be 5f 65 14 3f 88 54 0e c0 a2 c1 9e 3d
       -0.2557197 0.5796718 -2.2239094 0.07751776
000150 43 86 07 3e 3b 46 a1 3e 3a e1 9b 3e 56 c0 b2 bd
       0.1323481 0.31498894 0.30445272 -0.087280914
000160 85 72 02 3d b5 68 6d 3f ab 5c f7 3f c5 10 64 be
       0.031847496 0.92737895 1.9325155 -0.22272022
000170 f6 2e 1e bf e5 47 b1 3f 5c f4 56 3f 68 8e e4 bf
       -0.61790407 1.3850065 0.8396661 -1.7855959
000180 5b 08 95 bf 82 54 dc 3e bc bd 67 bd cc 75 c9 be
       -1.1643175 0.43033224 -0.05657743 -0.39347684
000190 1c be 99 3d af 92 75 bd 04 e1 b0 3f 0e 1f 79 bf
       0.075069636 -0.05995434 1.3818669 -0.9731301
0001a0 1d d3 96 bf 0f fe f6 3d d5 66 a6 3e 4d 45 35 bf
       -1.1783177 0.120601766 0.3250033 -0.7080887
0001b0 03 3a e5 bf 51 8a 0f 3e cb 58 dc be cb bf 9b be
       -1.7908329 0.14017607 -0.43036494 -0.30419764
0001c0 56 3e 66 be 26 4a 1b 3f cd b9 5f c0 c3 aa 09 3e
       -0.22484717 0.60660017 -3.4957154 0.13444047
0001d0 44 ea e0 bf 4b e2 61 bf d5 ab f7 3f 26 a7 21 be
       -1.7571492 -0.8823592 1.9349314 -0.15786418
0001e0 b7 5c a5 be 6e f8 2f 3f 3b 48 a5 3d 0c be 3c 3e
       -0.32297298 0.6873845 0.080704175 0.18431872
0001f0 ea 18 60 3f 38 cb 45 40 0d 0b 5f 3f ed da d3 be
       0.87538016 3.0905285 0.8712624 -0.41377965
000200 02 59 82 bf 26 e6 e4 be 48 d8 8e 3e 55 23 db be
       -1.0183413 -0.4470684 0.27899384 -0.42800394
000210 27 e0 0b 3e 77 c3 ac 3c 8b 98 29 3f 08 7d 98 bf
       0.13659726 0.021089299 0.6624839 -1.1913157
000220 2d 5b 48 bf 69 f0 5c bf 80 58 81 3f 72 2e 32 bf
       -0.78264123 -0.86304337 1.0105133 -0.6960212
000230 d8 75 a7 bf e8 8c c9 3e e4 84 c1 3e 20 32 dd bd
       -1.3082838 0.39365315 0.377967 -0.10800576
000240 0d d7 89 3d 77 17 60 bf e9 17 da bf 71 bb a7 bf
       0.06730471 -0.87535805 -1.7038547 -1.3104078
000250 2d cf 39 be e5 e2 91 bd 2c 84 b9 3f 0b 97 60 3e
       -0.18145438 -0.07123355 1.4493461 0.21932618
000260 99 45 b8 be 16 c9 8e be 74 a4 85 bf 28 71 46 3f
       -0.359906 -0.2788779 -1.0440812 0.7751641
000270 d3 f9 49 bc e3 a1 44 3f 65 19 24 be 8d ff d3 3d
       -0.012327629 0.7680952 -0.16025312 0.10351477
000280 17 8d 89 be 93 95 4c 3f b7 e7 9e 3e 64 f8 a0 bd
       -0.26865456 0.7991573 0.3103616 -0.07859877
000290 41 c8 48 3e 32 8c 06 3e 0d 74 36 3e 5e cc fc 3e
       0.19607641 0.13139418 0.17817707 0.4937467
0002a0 25 5d 94 be b0 b1 e8 bc af d1 08 40 2b 31 0d be
       -0.28977314 -0.02840504 2.137798 -0.13788287
0002b0 33 b3 1e 3f fa 01 ba be 0b 92 b1 3e 99 dc 6c bf
       0.61992186 -0.36329633 0.34681734 -0.92524105
0002c0 86 2f 81 3f fa d0 04 bf d7 9f 12 3f 30 5e 20 bc
       1.0092628 -0.5188137 0.57275146 -0.009788081
0002d0 66 e9 f0 be 25 90 22 bf dd 72 93 bc 2d 55 93 be
       -0.4705307 -0.635012 -0.017999107 -0.2877592
0002e0 2a 6d 35 3f 63 f5 75 3f ae 2a 31 bf 97 e2 50 3f
       0.70869696 0.96077555 -0.6920575 0.8159575
0002f0 bf 3a 58 bf 9c be 3b 3f 3c 86 fd 3d 1b 28 0e 3d
       -0.8446464 0.7333772 0.12379119 0.034706216
000300 68 0c 4f 3e 62 61 2f 3f c8 2e 74 3f ff f7 9c 3f
       0.20219576 0.6850797 0.9538388 1.2263182
000310 14 82 87 bf 45 75 67 3b 07 da f2 3e f4 9b a9 3e
       -1.0586572 0.00353177 0.47431967 0.33126795
000320 c2 d8 37 bf 2b fa 8f 3f af 1d 69 3e da 2d 2b bf
       -0.7181512 1.124822 0.2276523 -0.6686684
000330 1c c7 94 be e5 b2 0b 3f 0d 54 09 3f d1 74 7e bf
       -0.29058158 0.54569846 0.53643876 -0.99397
000340 a5 ea 8c 3e d8 73 a9 3e 20 2a 6d 3f b4 99 3d be
       0.2752277 0.33096194 0.926424 -0.18515664
000350 73 54 25 bf 87 ac 4f bf f7 6d 05 bf 3a 62 c4 3d
       -0.64581984 -0.8112263 -0.5212092 0.09589048
000360 f1 da a2 3e 4a db 3d bf 07 29 2b be ae c0 15 be
       0.31807664 -0.74162734 -0.1671487 -0.14624283
000370 86 a1 ea bd 67 e6 94 bd ae d3 7e bf 0d a8 0c be
       -0.114565894 -0.07270508 -0.9954175 -0.13735981
000380 ea ab cf be 82 e2 42 3e 16 45 23 3e 9d b6 52 be
       -0.40560848 0.19031718 0.15944323 -0.20577474
000390 db f5 04 be 19 3d 08 bf 54 03 12 40 9a b5 8c bd
       -0.12984411 -0.5321823 2.2814531 -0.06870575
0003a0 60 a5 4b bf 95 0f 04 bf bb 05 00 3f 0e 91 ec 3d
       -0.7954922 -0.51586276 0.50008744 0.115511045
0003b0 f6 a4 f0 be f5 53 00 40 1c 83 02 bf b0 8d e4 3d
       -0.47000855 2.0051243 -0.5098131 0.11159837
0003c0 92 9f 85 be c8 e4 7d 3f 0f 22 ba be c4 08 93 bc
       -0.26098305 0.9917722 -0.3635411 -0.017948516
0003d0 00 01 0c be bf df 71 3d c5 19 48 3f 3d 4b de be
       -0.13672256 0.05905127 0.7816432 -0.43416777
0003e0 cb d1 87 be e2 95 16 3e 44 55 85 3f 17 a8 cb be
       -0.26527247 0.14705613 1.0416646 -0.3977668
0003f0 80 c7 43 bf 69 46 9f bf 23 8b 90 be 8d 6d 7e be
       -0.7647629 -1.2443362 -0.28231153 -0.24846478

layer2.0.bias f4 [16]
000000 60 e8 80 40 3f 01 fb 3e ee ee d8 3e b0 3b 94 bf
       4.028366 0.49024388 0.4236979 -1.1580715
000010 8d 55 91 40 48 e9 fa c0 0b 96 90 40 8d 40 00 c0
       4.541693 -7.8409767 4.518316 -2.0039399
000020 c2 0e 1f 3f 94 d6 9c 40 eb a0 d6 bf af eb c2 c0
       0.62131894 4.9011936 -1.6767858 -6.09127
000030 5f 85 8e c0 9e 8d e1 bf bb 70 90 40 7b 86 36 c1
       -4.4537807 -1.7621343 4.513761 -11.407832

layer3.0.weight f4 [16, 16]
000000 4a 16 c2 be 08 7d c5 3f 1f 3a db 3e aa 16 fe 3e
       -0.3790763 1.5428782 0.4281778 0.49626666
000010 a7 af 8c bf 0b a3 fc 3e 6a df 35 3f 31 59 d6 3f
       -1.0991105 0.49343142 0.7104403 1.6745969
000020 a6 62 2c 3f 84 e1 f3 bf fb e6 47 be 31 74 2f 3e
       0.67338026 -1.9053197 -0.19521706 0.17134167
000030 7c 69 2c 3f 05 a4 cf be f8 ed 53 3e c8 a8 84 3c
       0.67348456 -0.40554824 0.20696247 0.016193762
000040 7e a7 4b 3e ec 3e 82 3f 0b 5d ff be 9f fa 1a bf
       0.19888112 1.0175452 -0.49875674 -0.6053867
000050 1f 73 a0 be 09 07 0d be 3e 0d 1b be 02 ce b7 3f
       -0.3133783 -0.13772215 -0.1514177 1.4359744
000060 aa ff 3b 3c 07 98 50 3f ef 28 35 3e 36 8b 2b bf
       0.011474529 0.81481975 0.17691396 -0.67009294
000070 c6 0f 74 be b4 48 f1 bf 4f b5 26 3f fc ca 96 3d
       -0.23834142 -1.8850312 0.65120405 0.07362935
000080 3a ac 68 bf 23 27 8a 3e c1 81 b9 be 52 ad 94 3f
       -0.90887797 0.26982984 -0.36231807 1.1615393
000090 8d 10 9b bf d5 ff e1 3e 0e 11 40 bf 53 0e 0f 40
       -1.2114426 0.44140497 -0.75026023 2.2352493
0000a0 dd 98 10 c0 7a b8 85 bf 81 99 06 3f b5 35 a3 be
       -2.25933 -1.0446923 0.5257798 -0.31876913
0000b0 26 66 d1 3f cf e7 b8 3f 50 f6 4d 3e 78 2a 1e be
       1.6359298 1.4445742 0.20113492 -0.15445888
0000c0 29 d9 65 bf 7f 0e 68 bf c0 b8 aa be b0 8b 82 be
       -0.89784485 -0.9064712 -0.33344078 -0.25497198
0000d0 1b 4c 08 3f 45 fe 43 bf 30 c4 7b 3e 34 ac 84 be
       0.5324113 -0.7655986 0.24586558 -0.2591263
0000e0 4d 0c b4 3e 58 84 a0 3e 3c 09 16 3d 6b 96 81 3f
       0.35165635 0.3135097 0.0366299 1.0124029
0000f0 63 4a be bf 1b dd 00 bd cd 85 a7 3f f7 4b 8e 3f
       -1.4866451 -0.031460863 1.3087708 1.1116933
000100 b4 3f 2a bf 8c a8 c6 3f e4 92 18 bc 9f 79 3c 3f
       -0.66503453 1.5520186 -0.009312365 0.7362308
000110 1e 9a 38 bf bd b4 27 3f 21 a2 83 3f 9f ec bb 3e
       -0.72110164 0.6551016 1.0283853 0.36703965
000120 99 a3 86 be ea a8 2a bf be f1 b2 be bf b6 f7 3e
       -0.2629669 -0.6666399 -0.3495006 0.48381612
000130 14 93 cb 3e c7 09 89 bf 27 c1 4c 3f b9 5c 4c be
       0.3976065 -1.0706109 0.7998223 -0.19957246
000140 bc 00 17 bf 65 4d 4e 3f 74 0d 59 3e 61 f8 75 bf
       -0.58985496 0.80586845 0.21196538 -0.9608212
000150 c9 7c 06 be 6d 66 9b bf 95 64 16 3e ca 54 1e c0
       -0.1313354 -1.2140633 0.14686806 -2.473925
000160 4c 7d b2 3e 8f 7d 2f c0 bd be b3 be 7a 25 c1 3e
       0.3486122 -2.7420385 -0.3510646 0.37723905
000170 4d 93 68 3f ed 5b 11 bf 65 7a db bf e8 27 a4 3c
       0.90849763 -0.5678089 -1.7146727 0.02003856
000180 fc c0 c9 3e e6 3b 46 3f 79 69 9b be 68 16 99 3e
       0.39405048 0.7743515 -0.30353907 0.29899907
000190 bc 0e 13 3e a2 12 d1 be d5 a6 e7 3d ee 8d 14 bf
       0.1436109 -0.40834528 0.113111176 -0.5802907
0001a0 5f 41 f4 3e b0 ae b8 be 9f 47 31 c0 cd b2 39 3f
       0.47706124 -0.36070776 -2.7699964 0.72538453
0001b0 86 80 ee bf 34 64 b3 bf 3d 94 8c bf b8 f7 6d bf
       -1.8632972 -1.4014955 -1.0982739 -0.92956114
0001c0 2c 8e 1c 3f 7b b0 f4 3e 63 c9 57 bf 15 8e 0d 3e
       0.6115444 0.47790894 -0.84291667 0.13823731
0001d0 35 33 43 3f a2 25 3a bf 34 89 4b bf 95 09 56 bf
       0.7625001 -0.72713673 -0.7950623 -0.8360837
0001e0 66 c1 3c bf 1d f1 31 3e 63 0e 2a 3f 82 03 78 3f
       -0.737326 0.17377134 0.664282 0.9688035
0001f0 5c 25 18 3f 97 4b 10 be 76 9c 64 3f f7 46 5d bf
       0.59432006 -0.14091335 0.8930124 -0.8643641
000200 8f da 73 3f fe 70 c7 3e 1e ed 66 bf 77 73 9a bf
       0.9525537 0.38953394 -0.9020556 -1.2066487
000210 e9 8f 20 bf ca ca eb be b8 94 d1 3f 71 22 12 bf
       -0.6271959 -0.46053153 1.637351 -0.57083803
000220 c5 94 00 3f b2 87 3b 3e e3 1e 4c 3f 8d c7 73 bf
       0.50227004 0.18313482 0.7973463 -0.95226365
000230 d9 99 36 3f 24 b6 7e be bb 5a 9c 3e d2 c7 d3 3f
       0.713285 -0.24874169 0.30537972 1.6545355
000240 10 31 b3 bf 58 ca 51 3f cc 77 d9 3b 1e e5 87 3f
       -1.3999348 0.8194938 0.0066365954 1.0616796
000250 f3 29 d4 bf 6e 02 60 3f 75 eb 2b 3e 7c 71 85 3f
       -1.6575302 0.8750371 0.16789038 1.0425258
000260 b2 f4 50 be 4a 80 12 bf a0 7a 70 bf 91 2e 66 3f
       -0.20405844 -0.57227004 -0.9393711 0.89914805
000270 76 3c 75 bf d8 a9 33 3e ed a7 a5 be 2e 8a 83 3e
       -0.9579538 0.17545259 -0.3235468 0.2569136
000280 58 fa bc be e5 2e 89 be b2 3b 56 bf 77 09 74 3e
       -0.36909747 -0.2679359 -0.8368484 0.23831736
000290 57 06 66 3f e7 8d 6f 3f ee bb bb 3e 3b c4 53 3f
       0.89853424 0.935759 0.36666816 0.827213
0002a0 c6 81 20 be df cb ec be fb 7c 24 bf 8d ac b5 bf
       -0.15674505 -0.4624929 -0.64253205 -1.4193283
0002b0 60 78 98 be fe 8b 4a 3f 5f 65 3f bf 5d 85 cf bf
       -0.2977934 0.7911986 -0.74764055 -1.6212574
0002c0 97 f1 c7 3f ba 46 5e bf 43 c3 52 bf c8 e1 7c 3e
       1.5620602 -0.8682667 -0.82329196 0.24695504
0002d0 7a 22 64 3f 36 8a 24 be c2 cc 48 bd 3e dd aa 3f
       0.8911511 -0.16068348 -0.049023397 1.3348768
0002e0 0e 83 52 3f 4b ac 96 bc d7 4e a0 3e 1f 92 1c 3f
       0.82231224 -0.018392703 0.3131015 0.61160463
0002f0 8e 3b 18 40 5b ea 8a bf 92 c0 10 c0 2c 7b 1a bf
       2.378635 -1.085277 -2.2617536 -0.60344195
000300 c2 45 53 3e 74 99 05 3f c7 21 65 3e 74 8d d0 bf
       0.20632079 0.52187276 0.22376166 -1.6293168
000310 08 26 16 3f 85 5a 3c be 50 38 49 3d fc 04 a9 3f
       0.5865178 -0.18393905 0.04912597 1.3204646
000320 fe 67 53 bf f5 af a7 3c 2e 1a 9f 3e e2 19 5a bf
       -0.82580554 0.020469645 0.3107466 -0.85195744
000330 c1 6d 66 3f 0a 59 67 3d 1c 68 1e 3f d2 74 97 3f
       0.9001122 0.0564814 0.6187761 1.1832526
000340 57 e0 1c 3f 6c 3e 6a bf f0 39 f4 be b3 53 fa bf
       0.61279815 -0.915015 -0.47700453 -1.9556793
000350 cd 84 bf be d6 c3 03 3f a4 ff 28 3f 35 1a 22 bd
       -0.37406006 0.51470697 0.66015077 -0.039575774
000360 c1 22 c1 be fc d7 85 be 80 7e 91 bd 65 ca 10 bf
       -0.37721828 -0.26141346 -0.07104206 -0.5655883
000370 cc 41 44 be 80 d9 b5 3e 82 8f bd be df ec 42 3f
       -0.19165725 0.35517502 -0.3702355 0.76142687
000380 5b 9a 2b 3f 7d 20 94 be ef fb c6 3e 00 32 87 bf
       0.670324 -0.28931037 0.38864085 -1.0562134
000390 e0 68 01 3d af f9 1e 3e 1a 41 1f bf 5d 55 36 bd
       0.031594157 0.15524934 -0.6220871 -0.044515003
0003a0 44 b3 0d bf d4 58 15 bf 88 d1 78 be ab 88 c9 3f
       -0.5535166 -0.58338666 -0.2429868 1.5744833
0003b0 fd 6b 01 bf ea 2d 8f 3f fe 7c 89 3f b8 7b a2 3f
       -0.505554 1.1185887 1.074127 1.2694006
0003c0 d1 93 b2 bd 88 f2 8c 3f 0e 18 0e bf d1 f1 11 3e
       -0.087196 1.1011515 -0.55505455 0.14252402
0003d0 b1 31 c3 be 2f 36 4d be 75 09 13 3f 0d 0a f9 be
       -0.3812385 -0.200402 0.57436305 -0.4864048
0003e0 f9 36 b1 3e c3 16 bc bf 1a 46 e4 be 96 e7 7c 3f
       0.34612253 -1.4694446 -0.44584733 0.9879087
0003f0 68 63 17 3d eb 9e e6 bd f0 57 ac 3e 5e f5 45 3f
       0.036960036 -0.1126078 0.3366084 0.77327526

layer3.0.bias f4 [16]
000000 c9 65 4a c0 4f a6 1c 3c 85 42 ac bf 63 be e1 bd
       -3.1624625 0.009561135 -1.34578 -0.110226415
000010 0d 17 8a 40 7e 74 5e 40 1d d0 82 40 ce 6f f9 c0
       4.315314 3.47586 4.0879045 -7.794898
000020 97 c4 66 40 f1 45 3e 3e fb 09 2d 40 0d d6 0a c1
       3.605749 0.18581368 2.7037342 -8.6772585
000030 9e e5 e6 3f a5 3a c8 3f 9f 7e ae 3f 5e de ee c0
       1.8038824 1.5642897 1.3632392 -7.4646444

layer4.0.weight f4 [16, 16]
000000 1c ca 25 3e af 2c 09 3f 7f bf 5e be ad 1f 7c be
       0.1619038 0.53583807 -0.21752737 -0.24621458
000010 5d d9 4e 3f a5 ed 61 c0 ca d9 c4 3e b5 60 48 3e
       0.8080042 -3.5301297 0.3844741 0.19568141
000020 0f b0 5c bf 75 fd 04 3f ce e3 90 3e 33 dd e1 bd
       -0.86206144 0.51949245 0.282988 -0.110285185
000030 8a fd 67 bf 1c ea a0 3c aa 0d 15 bf bf 70 9c be
       -0.90621245 0.019642882 -0.58223975 -0.30554768
000040 3f 82 c2 3d 04 3b 54 bf d0 e7 4b bf 9e 38 1e 3e
       0.09497499 -0.8290255 -0.7965059 0.15451285
000050 07 ac b5 bf 53 12 21 bf 5c 99 fc bd 2e 45 10 3f
       -1.4193124 -0.62918586 -0.123339385 0.5635556
000060 e6 31 a8 bf 59 01 1b 3e 63 34 3d 3f d0 ec 8a 3f
       -1.3140228 0.15137233 0.7390806 1.085352
000070 0a f1 7f bf 36 b9 57 bb 26 05 e2 bf 71 90 49 3f
       -0.9997717 -0.003291679 -1.7657821 0.78736025
000080 01 ea 03 3f e8 0c 04 bf 24 cd 1b bf 19 56 a7 be
       0.51528937 -0.51582193 -0.60859895 -0.32682875
000090 32 fe db be ef 21 d2 3f ae 3d c9 bf f8 2c e4 3e
       -0.42967373 1.6416606 -1.5721948 0.44565558
0000a0 7c 37 3a bf 9a 18 ad bf ed 2a 5e bf 11 6c 85 3f
       -0.7274091 -1.3523133 -0.8678425 1.0423604
0000b0 05 b3 66 bf 6c 45 8f 3f de 57 86 bf c6 10 b9 3f
       -0.9011691 1.1193061 -1.0495565 1.4458244
0000c0 92 66 a9 3f 08 84 d2 3e 49 e2 95 3d 77 ab df 3c
       1.3234427 0.41116357 0.07318551 0.02730344
0000d0 b1 f3 5e 3f 0c 8d 28 bf ba 76 84 be 59 5d 94 bf
       0.87090594 -0.6584022 -0.2587183 -1.1590987
0000e0 00 1a d7 3e 58 82 16 bf 7d 3b 8b bf 69 3e 91 be
       0.42012024 -0.5879264 -1.0877529 -0.28367928
0000f0 49 9a a3 3e 61 f8 b3 bf 0a ef 13 bd f0 4c f6 3f
       0.31953648 -1.4060174 -0.036116637 1.924223
000100 f9 9b b7 3e de 46 4e be b8 c2 4a 3d 86 43 01 bf
       0.35861185 -0.20144221 0.049502105 -0.5049366
000110 8e 14 e2 3e fd f2 8c 3c 6b 84 aa be 29 0d a8 be
       0.44156307 0.01720571 -0.33304152 -0.3282254
000120 d0 9f 7b 3c 4e 54 1d bf d5 15 ae be c6 42 fe 3e
       0.0153579265 -0.61456764 -0.34001032 0.4966032
000130 ba 0b 84 3f 77 48 b3 3e fb 6a 4a bf 09 0b ac bd
       1.0316079 0.35016224 -0.7906949 -0.08400542
000140 da b2 07 3d 69 6f 69 bf da eb 17 c0 6b 90 5e bf
       0.03312955 -0.91185623 -2.3737702 -0.86939114
000150 67 83 ce be c7 0b a6 3e c2 d2 ed 3f 82 30 5b 3e
       -0.40334627 0.3243086 1.8579943 0.21405223
000160 05 f4 8e 3e 84 ae c3 bf 79 13 4f be d2 a7 fc 3e
       0.27920547 -1.5287633 -0.20222272 0.49346787
000170 2c b7 54 bf 82 da 76 bf a1 24 37 bf a9 5a f3 be
       -0.83092 -0.96427166 -0.71540266 -0.47530106
000180 a9 2e 64 3f 30 4c ec bf b2 23 0a bf 1b 86 ba 3e
       0.891337 -1.846075 -0.53960717 0.3643044
000190 40 0c 45 be 4a d6 b2 3f cb e2 18 be 51 5d e9 3e
       -0.19242954 1.3971646 -0.14930265 0.45579007
0001a0 67 b4 fb be cb 18 1a 3f 47 23 38 bf a1 30 2b bf
       -0.49161074 0.6019408 -0.7192883 -0.66871077
0001b0 95 75 8a bf 79 fe 32 bf ef e2 d6 3c 91 a4 e8 3f
       -1.0817133 -0.69919544 0.026231257 1.8175222
0001c0 7a 2b a7 be 56 e1 4c 3e 01 c9 dd 3f a4 8f 86 3e
       -0.32650357 0.20007834 1.7326967 0.26281464
0001d0 ef af 18 be 94 84 fd bf 42 ba 02 c0 52 f6 9e 3c
       -0.14910863 -1.9806085 -2.0426183 0.019404564
0001e0 e0 9b 4c 3e b1 de a3 3d 96 5b 1e 3e 94 7d b5 be
       0.19981337 0.080014594 0.15464625 -0.3544737
0001f0 63 4b cc 3e ef fc 03 bf c7 bd 34 3e f8 67 36 3f
       0.39901266 -0.5155782 0.1765052 0.71252394
000200 19 9d 17 bf 14 5e a2 3e e0 f2 d2 bd ee 6d 44 bf
       -0.59224087 0.317124 -0.10300231 -0.7673024
000210 61 15 76 3e be c5 ec 3d 4e c7 7a bd 1d 3e c7 be
       0.24031593 0.11561154 -0.061225228 -0.38914576
000220 27 99 1d 3f 09 b7 0d 3f 6b 30 04 bf ef d5 80 bf
       0.61561817 0.55357414 -0.5163638 -1.0065287
000230 13 30 34 bf eb b6 16 bf 5b ee f8 3d ff de 14 3f
       -0.70385855 -0.5887286 0.12154838 0.58152765
000240 db 32 d2 3e ee 90 3e bf 92 43 91 3e d7 4e 5f bf
       0.41054425 -0.74439895 0.28371865 -0.87229675
000250 ca e8 d3 be c8 80 24 3f 28 da 32 3e f7 82 32 3f
       -0.4138854 0.64259005 0.17466033 0.69731086
000260 a3 9d 3f bf 44 0f 21 3e 3d 6f 86 3e 4e c3 99 3f
       -0.7484991 0.1572848 0.26256743 1.2012727
000270 12 e9 d5 3e 80 7c 1d 3e 7c 4b d5 be 28 f5 24 c0
       0.4177938 0.15379524 -0.41659153 -2.5774632
000280 fc 5f a6 3e 20 91 83 bf 8e f8 fb bf c4 2d 02 3f
       0.32495105 -1.0278664 -1.9685228 0.5085108
000290 2e 8d 51 bf 6d c2 6f bf c6 b0 a2 3e 7a 86 0e 3e
       -0.8185605 -0.93656045 0.31775492 0.13918486
0002a0 18 74 08 3f bd 91 80 be e6 1a 23 bf eb 41 a1 3e
       0.53302145 -0.2511119 -0.6371292 0.31495604
0002b0 9c d7 33 be 1a 6d 8d 3e 99 0a 15 be 8d 6a 16 3f
       -0.17562717 0.276223 -0.14554824 0.58756334
0002c0 1d ea 24 bd 36 dc a3 3f f0 f7 c1 bf c5 99 5b 3f
       -0.04026233 1.2801578 -1.515379 0.8578151
0002d0 91 3e 6e 3e 84 ff 5a 3f e2 7b 9d 3f 05 af 07 3f
       0.23266055 0.85546136 1.2303431 0.53001434
0002e0 9e cb 64 bf 4a 9b d9 bd fa bf e8 be 62 2f 84 3d
       -0.89373195 -0.10625322 -0.45458966 0.0645435
0002f0 88 fb 0f bf d7 fc 0b 3f c6 3e b0 3e 2c 15 12 3f
       -0.5624318 0.5468268 0.34422892 0.57063556
000300 17 7e b1 be d3 2c ca be 80 dc ab 3f 51 ee 53 bf
       -0.3466651 -0.39487323 1.3426666 -0.82785517
000310 89 9c 9e be dc 4a 82 be 32 11 dc be 5a b6 8c be
       -0.30978802 -0.25447738 -0.4298187 -0.27482873
000320 a9 40 d4 3e 35 0e e0 3e 42 4b c1 be 6e 2d 76 bf
       0.41455582 0.4376084 -0.3775273 -0.9616307
000330 ee f5 13 3f 28 8b 9e bf df f2 a8 3f 3a d6 62 bf
       0.57797134 -1.2386217 1.3199118 -0.88608134
000340 96 f4 bf 3e 0e 42 33 3e a9 6b 37 3f 65 0c 09 3e
       0.37491292 0.17505667 0.7164865 0.13383634
000350 09 e0 4e be 8e ec 48 bf f8 5d 9b 3e 29 1a aa bf
       -0.2020265 -0.78485954 0.3034513 -1.3289233
000360 ea 25 96 bd 6a 4d c0 3e 30 8d 8f 3d cb 7f 68 bf
       -0.0733145 0.37559062 0.07009351 -0.90819997
000370 dc f4 14 3f 86 4e de be 25 37 53 3e e0 1e 04 c0
       0.58186126 -0.43419284 0.20626505 -2.0643845
000380 7d d9 0a 40 ea ad 7a bf 8f e6 11 bf 74 a9 15 bf
       2.1695244 -0.9792162 -0.5699243 -0.5846169
000390 a3 a4 ff 3f 8c 14 8e 3f c7 8d dc bf 20 0f c6 3f
       1.9972118 1.110002 -1.7230767 1.5473366
0003a0 16 9f db bf 41 d3 84 be 4d 48 57 bf ea 35 a1 bd
       -1.7157924 -0.25942424 -0.840947 -0.078716114
0003b0 9e a7 89 3f a7 34 46 3d b8 ad 82 bf b3 df 76 be
       1.0754278 0.048390057 -1.0209265 -0.24108772
0003c0 3d 5d dc 3e 87 eb 04 3f d6 72 11 bd 00 89 72 3e
       0.43039885 0.51921886 -0.035509907 0.23685074
0003d0 7b 83 4e 3f a3 5d 81 3d 82 f2 8d be c3 32 10 bf
       0.80669373 0.06316688 -0.2772408 -0.56327456
0003e0 85 00 32 3f 83 47 ac be a8 cd 41 bf 46 80 88 3f
       0.6953204 -0.3364831 -0.7570443 1.0664146
0003f0 55 15 91 bf e9 13 8f bf 5a 5e 17 3f ce dc fa be
       -1.1334635 -1.1177951 0.59128344 -0.48996586

layer4.0.bias f4 [16]
000000 91 16 c9 c0 4c 78 0b c1 0e a7 07 c1 d4 6c 7c 3e
       -6.2840047 -8.716869 -8.478285 0.2465089
000010 22 2b 43 40 c7 d4 42 bf b6 fa d1 3f f9 80 78 3f
       3.0495076 -0.7610592 1.6404636 0.97071797
000020 04 e6 15 40 b9 6c c5 c0 44 b2 d6 3e 1e a3 ec 3f
       2.342164 -6.169522 0.4193288 1.848728
000030 a6 8b 9b 40 f9 11 e5 40 fa e9 5d c0 55 79 e2 bf
       4.860797 7.158444 -3.4674058 -1.7693278

final.weight f4 [27, 16]
000000 ce 34 a7 bf e0 5b 0c c0 1a 04 0c 3e 51 ac c9 3f
       -1.306299 -2.1931076 0.1367344 1.5755712
000010 e2 a3 ca 3f 6f e6 66 bf 3b 57 23 3d 62 02 eb 3c
       1.5831263 -0.90195364 0.03987811 0.02868766
000020 e0 eb 7c 3f 3e 50 b1 bf 42 96 e8 3e f6 ed d0 3e
       0.98797417 -1.3852613 0.45427138 0.4080655
000030 a5 78 b4 3f d9 03 a3 3f 43 1f da be 81 8a 7e 3f
       1.4099318 1.2735549 -0.42601976 0.9943009
000040 f3 df b2 bf 5b 1f ed bf 6b af 34 3e 33 d5 eb 3f
       -1.3974594 -1.8525194 0.17645042 1.8424438
000050 fb 29 d7 3f 0c df f1 bd a5 7f 5d 3e 16 62 91 be
       1.6809686 -0.11810121 0.21630724 -0.28395146
000060 16 12 71 3f ac 45 a5 bf bd 48 0a 3f c1 ec 0b 3f
       0.9416822 -1.2911887 0.5401724 0.5465813
000070 25 39 6c 3f 9f 7c 62 3f 2f 48 0b bf 54 e1 81 3f
       0.92274696 0.88471407 -0.5440702 1.014689
000080 af a3 f4 3e 32 1d 2b bf bc b7 7d be 62 b6 da 3f
       0.4778113 -0.66841424 -0.2477712 1.7086909
000090 6a a7 d3 3f 40 9c 5b bf 60 11 77 bf 87 0d 24 3f
       1.6535466 -0.85785294 -0.9651089 0.6408314
0000a0 b0 96 06 3e be 91 98 bf ca a0 63 3f a2 81 6b 3e
       0.1314342 -1.1919477 0.8891722 0.2299867
0000b0 29 94 61 3f 39 47 65 3f 98 68 61 be d6 75 88 3f
       0.881167 0.895618 -0.22012556 1.0660961
0000c0 ee 8b 8e bf fa 66 1d c0 85 f9 bf 3e 15 f9 ce 3f
       -1.1136453 -2.4594102 0.37495056 1.6169764
0000d0 59 e5 da 3f 16 32 60 be 08 34 ee 3e 26 ad 46 bf
       1.7101241 -0.21894106 0.46524072 -0.77607954
0000e0 31 c6 8d 3f ce e2 a9 bf 71 4e 07 3f 6b 39 9a 3d
       1.1076108 -1.327234 0.5285407 0.07530483
0000f0 a1 51 61 3f e1 52 8e 3f 43 02 e7 bd 36 f0 61 3f
       0.8801518 1.1119043 -0.11279728 0.8825716
000100 41 1e 79 bf 67 f7 1a c0 e7 a3 5a 3e 35 56 e1 3f
       -0.9731179 -2.4213502 0.21351586 1.7604433
000110 c4 8b ed 3f 46 7c 52 3e ec 54 df 3e ce 73 9c 3d
       1.8558278 0.20555219 0.43619478 0.076392755
000120 d9 14 2f be 36 b3 99 bf ce 8d b0 3e ef 61 51 3e
       -0.17097796 -1.2007816 0.34483188 0.20447515
000130 e2 e9 51 3f 5d b4 76 3f 55 d5 9b be 50 12 61 3f
       0.819975 0.9636896 -0.30436197 0.8791857
000140 a7 68 17 3e 5e 5c ca be 30 9d 7c bd 6c 13 d8 3f
       0.14786015 -0.39523596 -0.061673343 1.6880927
000150 95 cf b7 3f cb ba 6d bf 3d 6b ae bf 00 f5 f1 3e
       1.4360224 -0.9286315 -1.3626477 0.47257233
000160 b9 4b 16 be 91 aa 98 bf 31 a8 67 3f ca c1 5e ba
       -0.14677323 -1.1927053 0.90491015 -0.0008497505
000170 b3 c2 0a 3f d1 81 98 3f c1 aa f6 be ae a8 85 3f
       0.5420334 1.1914617 -0.4817715 1.0442102
000180 e1 d1 63 bf 3a ce 10 c0 5a 1c 78 3f 11 3b aa 3f
       -0.88992125 -2.262587 0.9691826 1.3299276
000190 a1 3e 5c 3f d8 c5 1f c0 13 63 27 bf 9e 3a 12 3f
       0.86033064 -2.4964504 -0.6538555 0.5712069
0001a0 57 ea d8 3d 00 36 93 bf 43 4d ce bd 20 81 58 bf
       0.10591572 -1.1500854 -0.1007333 -0.8457203
0001b0 5b d0 97 3f bf 41 89 3f 22 8d db bf 18 c6 66 3f
       1.186046 1.0723189 -1.7152445 0.9014602
0001c0 1b d8 53 bf f2 6b eb bf 75 ba 31 3f b4 e1 02 40
       -0.82751626 -1.8392317 0.69425136 2.0450258
0001d0 60 27 d0 3f a0 db dc bf 10 c0 cd 3e e5 7f 61 3e
       1.6262016 -1.7254524 0.40185595 0.22021444
0001e0 56 1e 84 3e 98 9e 8a bf 0c 2d 8b 3e a7 79 d2 be
       0.25804394 -1.0829649 0.27182806 -0.41108438
0001f0 66 68 f0 3e 11 67 a7 3f 60 82 1f be a6 ce a4 3f
       0.4695465 1.3078328 -0.15577078 1.2875564
000200 b7 dd b3 3e 14 70 2f be 46 d4 91 3e 68 d9 b8 3f
       0.35130093 -0.17132598 0.28482264 1.4441347
000210 0d e0 db 3f 37 7f 21 c0 6f c8 43 bf 02 62 4d 3e
       1.717775 -2.5233896 -0.7647771 0.20056918
000220 f6 d9 86 be e3 d5 ad bf 7a 80 6b 3f 19 b2 c4 be
       -0.26338166 -1.3580898 0.91992915 -0.38417128
000230 e8 0f 67 3f 15 d7 ca 3f d4 2a 5f 3e 87 c1 aa 3f
       0.90258646 1.5846888 0.21793681 1.334031
000240 4b 15 9e bf a2 79 2a c0 62 9e 74 3e b2 dc b2 3f
       -1.2350248 -2.6636739 0.23888543 1.3973601
000250 df 63 b6 3f 1e 4c 9e 3d 1a f1 e1 3d 7b 05 1a 3e
       1.4249228 0.07729362 0.110323146 0.15041153
000260 c6 61 b4 3f 38 15 af bf db 5f 29 3f 10 c2 09 3f
       1.4092338 -1.367835 0.6616189 0.5381174
000270 0e b8 8e 3f ba 95 66 3f 3e 47 39 bf 47 65 5e 3f
       1.1149919 0.90072215 -0.7237433 0.86873287
000280 58 33 b2 bf 60 11 c3 bf 5e ce f4 bc 8b 39 bf 3f
       -1.3921919 -1.5239677 -0.02988356 1.4939436
000290 aa 86 be 3f c2 ed 43 3c df 5c b1 be c0 01 23 3f
       1.4884846 0.011958541 -0.34641168 0.63674545
0002a0 fd 47 7b 3f 3f fc 9c bf d6 55 2d 3f 07 3d 14 3f
       0.9815672 -1.2264479 0.677091 0.5790562
0002b0 36 09 de 3f 7c bb 3b 3f c6 c8 95 bf 22 1f 49 3f
       1.7346561 0.73332953 -1.1701896 0.7856313
0002c0 37 d0 a8 ba 4e 87 c3 bf c2 8f 86 be 7d 2c bb 3f
       -0.0012879436 -1.5275667 -0.26281554 1.4622952
0002d0 e7 f7 a7 3f e6 6c 34 bf 37 21 6f bf 15 a0 5e 3f
       1.3122529 -0.70478666 -0.93410057 0.86963016
0002e0 9a e6 1f 3f 20 92 9f bf 21 fe 26 3f bd b0 ea 3d
       0.62461245 -1.2466469 0.6523152 0.114594914
0002f0 d3 ef 7c 3e 41 f7 a4 3e 41 02 bc bf c3 7b 38 3f
       0.2470086 0.3221989 -1.4688188 0.72063845
000300 59 e5 ac bf d2 5b 5d c0 0b 03 97 3e 04 0b bd 3f
       -1.3507491 -3.4587293 0.2949451 1.4768987
000310 78 f8 ca 3f f0 ea 0c be 7c ed 0a 3f fb 70 a8 be
       1.5857077 -0.13761497 0.5426862 -0.32898697
000320 54 a9 a1 3f 94 b6 4c bf e4 05 19 3f c7 2a 88 be
       1.26298 -0.7996609 0.59774613 -0.26595137
000330 2e 8b 0c 40 28 61 df 3f 72 29 bd bd 4d d3 15 3f
       2.1959949 1.7451525 -0.09236421 0.58525544
000340 da f9 8e 3e 98 b5 1d c0 8e 48 87 be 22 69 40 40
       0.27924997 -2.4642086 -0.26422542 3.0064168
000350 aa 11 21 be c7 7c d1 3f 12 34 57 40 f2 80 91 3f
       -0.15729395 1.6366204 3.3625531 1.1367476
000360 41 65 3a 40 b7 69 24 bf 97 63 34 bf 0e 4b a4 bf
       2.91243 -0.6422381 -0.7046446 -1.2835405
000370 a9 6d f3 bf a0 bf 14 c0 fb 02 85 3d be 31 ab 3f
       -1.9017841 -2.3241959 0.06494709 1.3374555
000380 94 f9 29 bf cc 48 26 bf 05 68 29 3e 43 39 b7 3f
       -0.6639645 -0.6495483 0.16543587 1.431435
000390 d7 52 9a 3f 1c 93 34 be 3c 50 98 bf 45 b3 b9 3e
       1.2056531 -0.17634243 -1.1899486 0.36269584
0003a0 9c 17 52 3f b8 7e 83 bf 35 18 2d 3f 97 1f 4a bc
       0.82067275 -1.0273046 0.6761506 -0.012336633
0003b0 6b da 80 3e fb b4 7d 3f 78 3b ea bf c4 a9 34 3f
       0.2516664 0.9910428 -1.8299398 0.7057154
0003c0 1a 25 23 be 14 1e 86 c0 1e 3b 74 3f 55 4c ab 3f
       -0.15932122 -4.1911716 0.95402706 1.338267
0003d0 43 9a 93 3f 33 ca 82 bf f4 cf b3 3e 3a ff 55 3f
       1.1531452 -1.0217956 0.35119593 0.8359257
0003e0 51 92 89 3f 18 c3 9c bf 52 19 da 3e bc 72 0c bf
       1.0747777 -1.2247038 0.42597443 -0.5486257
0003f0 86 40 d5 3e 6d 97 4d 3e 44 a3 05 bf fb 9b 66 3f
       0.4165079 0.20077296 -0.5220225 0.9008176

final.bias f4 [27]
000000 e1 13 40 40 cc a8 a3 40 a6 e1 73 3f 8b 45 1d 40
       3.0012133 5.114355 0.9526619 2.4573696
000010 f0 a5 dc 40 c9 6f f2 3e ab 30 ed 3f 00 55 79 40
       6.895256 0.4735091 1.8530477 3.895813
000020 02 a6 d0 3e db 4c 30 40 06 26 94 40 cb b5 44 bf
       0.40751654 2.754691 4.6296415 -0.76839894
000030 f6 0b 0f 41 01 0c a9 c1 2d c5 a0 40 26 25 96 40
       8.94042 -21.130861 5.0240693 4.6920347
000040 d1 21 1d 41 fd aa a2 3f 0b ce ff 3f 00 b7 ef 3f
       9.820756 1.2708431 1.9984754 1.8727722
000050 6f bc c5 3f bd b9 46 40 a6 ee 32 41 3c 3c 11 40
       1.544813 3.1050866 11.183264 2.2693014
000060 9c 01 40 40 df a6 58 40 71 7e 2d 40
       3.0000982 3.385185 2.7108424

exp_avg f4 [16, 42]
000000 4d 09 2c 42 ae 2b 4a 42 82 0d a4 40 24 ef c6 bf
       43.009083 50.542656 5.126649 -1.554173
000010 94 b3 d7 3f 8c f9 f7 be d6 d1 25 42 46 e9 50 42
       1.6851678 -0.48432577 41.454918 52.227806
000020 e5 8d 94 40 50 db 70 42 d8 ad 56 42 d0 71 89 40
       4.642321 60.214172 53.66977 4.295143
000030 59 bc f1 be e1 5f e0 b9 1a 28 45 40 d2 2d 92 43
       -0.4721401 -0.00042796045 3.0805726 292.35797
000040 d9 2a c6 bc 95 84 c0 bc d1 9b a9 bc 93 0f eb ba
       -0.024190353 -0.02350072 -0.020704182 -0.0017933719
000050 ab f5 b0 3b b3 09 e4 3b 57 03 1e 3e af 1c 9b 3d
       0.0054003797 0.006959164 0.15430962 0.0757383
000060 91 ac 8d 3d 98 13 81 bd b9 21 03 bd 0f 10 fa bc
       0.0691768 -0.06302565 -0.032014582 -0.030525235
000070 fe d5 34 bd 04 00 00 80 01 b4 e7 3d 48 d8 4c 3d
       -0.04414939 -6e-45 0.1131363 0.05001095
000080 3c fb 55 3d 1f ab 38 3e 1e a1 43 3e 8a 04 70 3e
       0.05224155 0.18034028 0.1910443 0.23439232
000090 e6 9c 4a 3d 47 38 b2 3d ef 3c 1b 3e 0c bb 96 3e
       0.049466036 0.0870214 0.15159963 0.2943958
0000a0 14 1e 65 3e f4 71 7e 3e f0 d7 0b c3 01 b0 3c c3
       0.22374755 0.24848157 -139.8435 -188.68752
0000b0 4c a5 cb c1 2b 62 2b c2 7c 4b c6 c1 a2 8a c7 bf
       -25.455711 -42.845867 -24.786858 -1.5589182
0000c0 7b b0 36 c3 70 79 55 c3 f4 1d d8 c1 14 f0 80 c3
       -182.68938 -213.47437 -27.014626 -257.8756
0000d0 de 55 32 c3 7c ec a9 c2 34 e3 b9 be a3 49 78 3a
       -178.33542 -84.96188 -0.36306155 0.0009471422
0000e0 75 ab 9a c1 27 32 5b c4 57 e3 21 3e 20 ca a7 3d
       -19.33372 -876.7836 0.1580938 0.08192849
0000f0 4b 51 99 3d b0 43 2a bd dd c8 92 bb 75 b8 99 bb
       0.074862085 -0.041568458 -0.004479511 -0.0046911784
000100 7e d8 de be 3c fd d9 bd 80 b6 e7 bd d6 0e a8 3e
       -0.43524545 -0.10644004 -0.11314106 0.3282382
000110 52 50 b7 3d 62 c6 a8 3d fd 4d 0d 3e 04 00 00 00
       0.08950867 0.082409635 0.13799281 6e-45
000120 8b 3d 84 be 1b bb 99 bd 68 fe bb bd d4 85 11 be
       -0.25828204 -0.07506391 -0.091793835 -0.14211208
000130 30 5a 8d be af 58 c1 be 2a bf 88 bd 7c 0c eb bd
       -0.2760787 -0.37762973 -0.06677087 -0.114769906
000140 c2 48 8d be dc b1 42 bf 81 bd d4 be 76 89 f5 be
       -0.27594572 -0.7605264 -0.4155083 -0.47956437
000150 43 5f be 41 fa b0 7c 41 3a c0 d8 3f 71 2b 23 c1
       23.796515 15.793207 1.6933663 -10.198106
000160 62 5c 8a c0 07 81 e6 3e 12 93 59 41 c4 82 37 41
       -4.323777 0.45020315 13.598406 11.469425
000170 42 30 09 40 b4 00 db 41 6f d3 0c 42 40 73 49 c0
       2.1435704 27.375343 35.20648 -3.1476593
000180 99 a6 c7 bf b8 d4 a0 39 50 07 e1 3e 85 2f 85 43
       -1.5597717 0.00030676066 0.43950891 266.37125
000190 54 bb 76 3d a9 5e c0 3b ee f9 ed 3b ca f1 3b bc
       0.060237244 0.0058706594 0.00726246 -0.011471221
0001a0 08 17 0d 3c fe fd e6 3b b3 fc 32 ba 73 4c 7d 3d
       0.008611448 0.007049321 -0.0006827816 0.061840486
0001b0 34 3d 7c 3d 4d 00 d5 3d 5a f7 c5 bb 47 d4 38 bb
       0.061581805 0.10400448 -0.0060414495 -0.00282027
0001c0 4d 1c f3 3c 04 00 00 80 a8 42 46 3d b9 04 17 3d
       0.02967658 -6e-45 0.048403412 0.03686974
0001d0 b8 08 36 3d ce 5d cb 3e c5 5f 57 3e f9 15 10 3e
       0.04444191 0.39720005 0.21032627 0.14070882
0001e0 4c b0 39 3e d1 10 c7 3d 5b 23 f5 3c fa 32 4a 3e
       0.18133658 0.09720004 0.029924085 0.19746009
0001f0 d3 9b f1 3d 76 5c a0 3d 83 29 25 42 d5 93 46 42
       0.11797299 0.078301355 41.29054 49.644367
000200 18 47 8c 40 40 9f 6c 3d de b4 64 bf 48 01 ce 3e
       4.3836784 0.05776906 -0.8933848 0.40235353
000210 ae 64 25 42 fe 00 43 42 29 27 99 40 41 f0 73 42
       41.34832 48.75097 4.7860303 60.984623
000220 a2 18 5b 42 b5 7e e8 40 8b 35 14 be 1d 29 cf 39
       54.774055 7.265467 -0.1447355 0.00039512748
000230 a0 5e 8d 40 9a e4 b4 43 f6 d0 4a 3d 70 70 dd 3c
       4.417801 361.78595 0.049515687 0.027031153
000240 43 34 e3 3c 42 a0 00 bb 3d 85 60 3b ba f7 83 3b
       0.027734881 -0.001962677 0.0034259104 0.004027334
000250 24 b0 75 3d 9c 1a 75 3d 7e a4 5b 3d a5 7f 71 3c
       0.059982434 0.05983983 0.05362367 0.0147399055
000260 c7 1f 81 3c e8 81 83 3c 4e d8 08 bd 04 00 00 80
       0.015762223 0.016053155 -0.03340941 -6e-45
000270 3b e7 f2 3c 9e b1 32 3d 68 93 33 3d f6 79 f8 3e
       0.029651275 0.04362642 0.04384175 0.4853055
000280 fe 9d f3 3e f0 e1 e7 3e 8d 80 b2 3e 5a 5c c5 3e
       0.47581476 0.45289564 0.348637 0.3854702
000290 ac 3d c2 3e 03 14 d4 3e 8a 29 de 3e 7b 6a d6 3e
       0.37937677 0.41421518 0.43391067 0.41878113
0002a0 8b ef 0d c3 cd 8a 3a c3 e3 5b c4 c1 3f 19 ce c1
       -141.93571 -186.54219 -24.544867 -25.762327
0002b0 1e 85 05 c1 69 1a ed be b2 b2 27 c3 1d e3 42 c3
       -8.344999 -0.46309212 -167.69803 -194.88716
0002c0 4d 10 c8 c1 c1 46 54 c3 c3 b9 32 c3 2c 74 48 c2
       -25.00796 -212.27638 -178.72563 -50.11345
0002d0 88 e0 30 bf e8 a9 6e 39 68 1d 93 c1 28 09 78 c4
       -0.6909261 0.00022760744 -18.389359 -992.14307
0002e0 19 8c fd 3d 15 62 95 3d 97 2c 84 3d 9f e4 3d bd
       0.12380237 0.07294098 0.06453817 -0.04636061
0002f0 1e 72 8a ba e5 3e 99 bb 21 00 ad be d0 5b e6 bd
       -0.0010562574 -0.004676687 -0.3378916 -0.112479806
000300 49 15 e1 bd 1a ca b5 3e cd 19 9e 3d 08 d7 93 3d
       -0.10990388 0.35505754 0.07719765 0.07218748
000310 4a 72 49 3e 04 00 00 80 54 d4 9c bd bc 4c ad bd
       0.19672504 -6e-45 -0.07657686 -0.084619015
000320 65 c8 b9 bd d8 47 fc bd ad a5 af be ce ee e2 be
       -0.09071425 -0.123183906 -0.34306088 -0.4432282
000330 ce ca e5 bd aa e5 8e be b6 40 da be c5 80 0a bf
       -0.112203225 -0.27909595 -0.42627496 -0.54102737
000340 9b 72 00 bf bb 93 0f bf 7f 65 0b c2 cc af e5 c1
       -0.50174874 -0.56084794 -34.849117 -28.710838
000350 b2 f3 8a c0 2c cb b6 40 18 72 17 bf 31 2d 88 3f
       -4.342248 5.7123013 -0.5915847 1.0638791
000360 31 18 e9 c1 58 6b ea c1 d1 d0 51 c0 40 21 4a c2
       -29.136812 -29.302414 -3.2783701 -50.53247
000370 81 e8 3b c2 c0 8f c0 3f 44 cb 76 3f 12 1e 0c 3a
       -46.977055 1.5043869 0.9640391 0.0005345057
000380 b2 35 dd bf 58 59 85 c3 9c 4c b8 3d 03 89 aa 3d
       -1.7282012 -266.698 0.08998987 0.08326914
000390 37 cf 97 3d 8a b8 20 3c 97 e3 b7 bb 34 1b 09 bc
       0.0741257 0.009809623 -0.0056118476 -0.008368302
0003a0 4b 8a f6 bd f2 5f 40 bd 73 a2 42 bd 1b f4 0d 3e
       -0.12038096 -0.0469665 -0.047518205 0.1386265
0003b0 cf 23 bf 3d 1b 52 b1 3d 1c 44 7a 3d 04 00 00 00
       0.09333002 0.086582385 0.06110011 6e-45
0003c0 3a d1 98 bd b6 85 b6 bc 64 f8 ea bc 45 5f ca bd
       -0.07461782 -0.022280555 -0.028682895 -0.098814525
0003d0 33 54 9a bd b8 95 01 be 1e e3 99 3c 11 0a 0e 3c
       -0.07535591 -0.1265477 0.018785056 0.008669392
0003e0 9a f9 98 bd 49 4b 87 be bf 9c 0e be 49 b1 37 be
       -0.07469483 -0.26424626 -0.13926981 -0.17938723
0003f0 8b 3f a2 c2 a0 3f ec c2 46 be 5c c1 e0 63 c6 c1
       -81.12411 -118.12427 -13.796453 -24.798767

exp_avg_sq f4 [16, 42]
000000 da fe 37 48 35 86 18 48 f6 7d e8 45 39 69 08 47
       188411.4 156184.83 7439.745 34921.223
000010 cd 76 b0 45 b8 35 1d 44 62 c4 ad 48 c6 0b 2c 48
       5646.85 628.83936 355875.06 176175.1
000020 66 c2 83 45 13 85 f5 48 74 98 8c 48 40 14 be 47
       4216.3 502824.6 287939.62 97320.5
000030 04 6d ce 41 98 7b 57 39 7b 82 bf 45 0f fe 2d 4b
       25.80323 0.0002055004 6128.31 1.1402767e+07
000040 85 33 84 3f ea 81 00 3f 1a 24 d2 3e 13 7f 76 3f
       1.0328223 0.50198233 0.41043168 0.9628765
000050 ff 23 9f 3e b7 e6 9d 3e 30 68 b6 3f 0a c5 0b 3f
       0.3108215 0.30840084 1.4250546 0.5459753
000060 c7 88 00 3f 54 55 33 3f 95 1c b5 3e 36 e8 83 3e
       0.50208706 0.70052075 0.3537337 0.257631
000070 95 fc d7 3e f4 01 00 00 58 c8 6f 3f 7b a4 a6 3e
       0.42184892 7e-43 0.93665075 0.32547364
000080 d3 82 8f 3e 4b 75 d7 3f fa 2d a9 3f 72 ef 87 3f
       0.28029498 1.683267 1.3217156 1.0619948
000090 9a 08 e6 3f b0 91 b5 3f 44 c4 9b 3f 3c 4c 01 40
       1.7971375 1.4185085 1.216927 2.020278
0000a0 2e 8a c9 3f 8c 10 ac 3f 0c 89 63 49 b4 c4 32 49
       1.5745294 1.344255 931984.75 732235.25
0000b0 20 87 1c 47 f7 2c 08 48 32 90 5a 47 62 4d f5 44
       40071.125 139443.86 55952.195 1962.4182
0000c0 7d 79 c9 49 9c d9 40 49 40 fe da 46 1b d1 25 4a
       1.6504796e+06 789913.75 28031.125 2.7167428e+06
0000d0 ef 7e bc 49 2c 54 ef 48 d8 09 e7 42 64 b2 2b 3a
       1.5441579e+06 490145.38 115.519226 0.00065497146
0000e0 a8 c1 eb 46 43 88 5e 4c 8a 15 74 40 b4 a1 d5 3f
       30176.828 5.83355e+07 3.8138146 1.6689973
0000f0 d4 bc 95 3f f0 2e 8f 40 8b 4c b8 3f 2e 3c b5 3f
       1.1698251 4.4744797 1.4398359 1.415899
000100 75 71 c8 40 92 23 0b 40 5f 42 fd 3f 39 ba 37 40
       6.2638497 2.174046 1.978588 2.8707411
000110 22 c6 91 3f f4 3b 24 3f e3 60 27 40 f4 01 00 00
       1.138859 0.6415398 2.6152885 7e-43
000120 34 ac 8a 40 68 56 6f 3f 68 34 43 3f 0b eb b0 40
       4.333521 0.9349122 0.7625184 5.528692
000130 c2 d7 67 40 0a fc 22 40 bb c7 a7 40 10 1b 28 40
       3.6225438 2.5466332 5.243131 2.6266518
000140 72 53 0f 40 79 e9 e7 40 e5 c7 9a 40 d5 3c 8c 40
       2.239468 7.24725 4.836901 4.382426
000150 1c 0c aa 47 59 7c d1 47 ca f1 8e 45 46 dd 44 47
       87064.22 107256.695 4574.2236 50397.273
000160 f4 a3 44 46 fa d6 d8 43 4c 44 72 48 16 8c d1 47
       12584.988 433.6795 248081.19 107288.17
000170 9b eb 25 45 23 f7 b5 48 f8 ed f3 47 9c e5 07 48
       2654.7253 372665.1 124891.94 139158.44
000180 af 1c 9d 41 4e 82 51 39 ee 81 7f 45 30 da 8c 4a
       19.639006 0.00019980335 4088.1206 4.615448e+06
000190 e8 7b c5 3f 0a dd 62 3f 63 0c d1 3e 43 ec 50 3f
       1.5428438 0.8861853 0.40829763 0.81610507
0001a0 d4 2a ec 3d b5 c4 e8 3d 21 95 93 3f 63 67 00 3f
       0.11531606 0.11365644 1.1529886 0.50157756
0001b0 7d 81 c1 3e a5 7d c1 3f bd c8 60 3f 14 1d c4 3e
       0.37794104 1.5116469 0.878063 0.38303435
0001c0 c4 0b 29 3f f4 01 00 00 27 2f 83 3f 67 c4 d6 3e
       0.6603358 7e-43 1.0248765 0.41946718
0001d0 c9 5d 9b 3e 52 cd 80 40 7c 99 56 40 5f dc 0d 40
       0.3034499 4.0250635 3.353118 2.2165754
0001e0 0d 64 a7 40 b6 1f 91 40 5b 3e 26 40 e7 d7 a5 40
       5.230963 4.535121 2.5975559 5.1826053
0001f0 ce 72 91 40 ba 68 23 40 9c 0f 99 47 a1 a1 b3 47
       4.5452642 2.553267 78367.22 91971.26
000200 c2 3b 69 45 e5 b0 07 47 32 c2 3c 46 22 d7 99 43
       3731.7349 34736.895 12080.549 307.68073
000210 c4 09 3c 48 c9 99 82 47 17 3a 11 45 d3 36 8e 48
       192551.06 66867.57 2323.6306 291254.6
000220 42 f7 e1 47 c6 4a c1 47 22 58 8c 41 f0 f3 49 39
       115694.516 98965.55 17.543034 0.00019259728
000230 2b 1f 53 45 de 5e 89 4a ad 1f 8e 3f 32 ae 66 3f
       3377.948 4.501359e+06 1.1103417 0.9010955
000240 c8 9c 0c 3f 76 39 8f 3e 39 e6 b9 3d d1 40 b9 3d
       0.5492673 0.27973527 0.090771146 0.09045566
000250 dc 94 de 3e 36 6b 81 3e 04 e9 4e 3e bd e9 93 3f
       0.43472946 0.25277108 0.20206076 1.1555706
000260 da 46 6a 3f 69 62 04 3f aa 42 48 3e f4 01 00 00
       0.9151436 0.5171266 0.1955668 7e-43
000270 98 8c c7 3e 3f c2 3b 3e a7 4d 08 3e be a3 b8 40
       0.38974452 0.18335818 0.13310872 5.769988
000280 70 6b af 40 c2 a2 67 40 c0 78 ac 40 45 a7 a5 40
       5.481865 3.619309 5.38974 5.1766686
000290 cb fe 5a 40 81 73 83 40 7d 44 79 40 ac e1 08 40
       3.4218013 4.1078496 3.8948052 2.138774
0002a0 3d 7f 10 49 a0 35 cb 48 11 ff ab 46 fe f9 48 47
       591859.8 416173.0 22015.533 51449.992
0002b0 06 db 8f 46 ab 79 8e 44 7f 5b 5f 49 95 19 e8 48
       18413.512 1139.8021 914871.94 475340.66
0002c0 d9 6d 6e 46 9b 06 ae 49 40 ad 76 49 f5 cf 2b 48
       15259.462 1.4256194e+06 1.010388e+06 175935.83
0002d0 0b 68 9f 42 97 cf d0 39 69 e7 80 46 2d 7b 17 4c
       79.70321 0.00039827518 16499.705 3.9709876e+07
0002e0 ba 53 16 40 ca a8 46 3f 70 ec 26 3f e4 0b 67 40
       2.3488603 0.776013 0.65204525 3.6101007
0002f0 f0 32 91 3f da a8 8f 3f e7 ea 94 40 9f e4 be 3f
       1.134367 1.1223404 4.6536746 1.491352
000300 e5 49 af 3f 38 1c 05 40 1c 62 13 3f 80 fa e5 3e
       1.3694426 2.0798473 0.5757158 0.4491768
000310 84 f4 17 40 f4 01 00 00 12 95 58 40 57 b8 ed 3e
       2.374299 7e-43 3.3840985 0.46429703
000320 36 6c b0 3e 2e bb 81 40 20 e9 20 40 35 85 fb 3f
       0.34457558 4.054099 2.5142288 1.9650027
000330 45 93 8e 40 b1 9a 07 40 de 9a df 3f 65 0f b3 40
       4.455477 2.1188166 1.7469137 5.595629
000340 fd 9b 50 40 79 ef 33 40 55 33 2f 48 2f 5c 3b 48
       3.2595208 2.8114913 179405.33 191856.73
000350 ac 2f 00 46 f8 4d 77 47 08 a5 60 46 d5 14 1b 44
       8203.918 63309.97 14377.258 620.3255
000360 e2 7c ce 48 d3 68 4c 48 e0 7b 9d 45 76 64 15 49
       422887.06 209315.3 5039.4844 611911.4
000370 24 13 71 48 eb 59 32 48 b0 8f d0 41 f3 2a 9a 39
       246860.56 182631.67 26.07016 0.0002940517
000380 cd bb e3 45 95 f4 15 4b f2 bb c5 3f b0 2f 84 3f
       7287.475 9.827477e+06 1.5447981 1.0327053
000390 a2 5e 15 3f ef 89 63 3f 8d b8 a1 3e a8 c7 9d 3e
       0.58347523 0.88882345 0.31586114 0.30816388
0003a0 e6 90 b1 3f dc 5f 13 3f 45 02 07 3f 8c a9 a2 3f
       1.3872344 0.57568145 0.5273784 1.2707992
0003b0 fb c3 46 3f ee 90 a8 3e ce 0b 01 3f f4 01 00 00
       0.7764279 0.32923073 0.5040864 7e-43
0003c0 c9 37 86 3f bf a5 ab 3e a6 b1 94 3e b2 7c 3c 40
       1.0485774 0.33524892 0.29041785 2.9451108
0003d0 4c d9 11 40 e0 ce c5 3f 4f 7c 1a 40 20 c8 eb 3f
       2.2788877 1.5453758 2.4138372 1.8420448
0003e0 82 df d1 3f 7f 95 3a 40 a1 70 14 40 4c ad 05 40
       1.6396334 2.9153745 2.3193743 2.0887022
0003f0 11 2d cf 48 60 00 97 48 dd 0d 8b 46 45 c6 67 47
       424296.53 309251.0 17798.932 59334.27

exp_avg f4 [16]
000000 aa 80 0b 3f c4 7a 1b c0 1e 30 59 3e 06 45 09 3f
       0.544932 -2.429368 0.21209762 0.53620946
000010 9a b8 0f c0 32 d1 be be 65 c9 b6 bf 7a 18 48 3f
       -2.2456422 -0.37268978 -1.4280211 0.7816235
000020 d4 0f 88 3f 83 49 45 40 b6 d3 e0 bf f2 96 1b 3f
       1.062983 3.0826118 -1.7564609 0.607772
000030 3e 6c 8c bf 16 f9 0a 40 6e e9 5c 3f 78 8a 4b be
       -1.0970533 2.171453 0.86293685 -0.1987704
